tflite_model/MicroISP.tflite (tflite, 159192 bytes, 342 tensors)

generator-1/0_b1_0 f4 [4]
000000 15 92 86 be 74 c1 85 3d 5c 3e 1c 3e c3 bf 07 be
       -0.26283327 0.06531039 0.15258163 -0.13256745

generator-1/p_re_lu/add;generator-1/p_re_lu/Relu;generator-1/p_re_lu/Neg_1;generator-1/p_re_lu/Relu_1;generator-1/p_re_lu/mul f4 [1, 1, 4]
000000 72 45 a6 3f 52 c4 65 bf 1c a5 17 3f ae 35 53 3f
       1.2989943 -0.89752686 0.5923631 0.82503784

generator-1/0_b1_1 f4 [4]
000000 4a 3a eb bd 4b 19 cb bc 9e 52 33 bd b4 10 82 bd
       -0.11485727 -0.024792334 -0.04377996 -0.06350842

generator-1/p_re_lu_1/add;generator-1/p_re_lu_1/Relu;generator-1/p_re_lu_1/Neg_1;generator-1/p_re_lu_1/Relu_1;generator-1/p_re_lu_1/mul f4 [1, 1, 4]
000000 ac 70 ba 3f b7 a7 ed be a3 10 3c 40 7f e2 bf be
       1.4565635 -0.4641702 2.9385154 -0.3747749

generator-1/0_b1_2 f4 [4]
000000 ce 10 98 bc e6 54 5a bd 98 b4 7e 3e 3f 03 b3 3d
       -0.0185627 -0.05330362 0.24873579 0.087408535

generator-1/p_re_lu_2/add;generator-1/p_re_lu_2/Relu;generator-1/p_re_lu_2/Neg_1;generator-1/p_re_lu_2/Relu_1;generator-1/p_re_lu_2/mul f4 [1, 1, 4]
000000 9d a5 f1 bd f8 6e dd be 92 3c b7 3f 3e 80 81 3e
       -0.11799166 -0.43248725 1.431536 0.25293154

generator-1/Variable_1 f4 [4]
000000 f9 b3 3d bd 2c 60 78 bd 2c ee 34 be 69 f4 f3 bb
       -0.046314213 -0.06063859 -0.1766898 -0.0074449074

generator-1/p_re_lu_3/add;generator-1/p_re_lu_3/Relu;generator-1/p_re_lu_3/Neg_1;generator-1/p_re_lu_3/Relu_1;generator-1/p_re_lu_3/mul f4 [1, 1, 4]
000000 7f 07 a0 be d3 8c a4 be 2d 2d 64 be 20 b5 2e bf
       -0.3125572 -0.3213869 -0.22282858 -0.68245125

generator-1/Variable_3 f4 [4]
000000 34 a6 b4 3d 83 54 bd 3d 62 4e c9 3d 28 78 4c bd
       0.08820763 0.09244635 0.098294035 -0.049919277

generator-1/p_re_lu_4/add;generator-1/p_re_lu_4/Relu;generator-1/p_re_lu_4/Neg_1;generator-1/p_re_lu_4/Relu_1;generator-1/p_re_lu_4/mul f4 [1, 1, 4]
000000 14 d1 86 3d 76 47 60 bf 3e 81 45 40 d1 0e 12 bf
       0.06582847 -0.8760904 3.0860133 -0.5705386

generator-1/Variable_5 f4 [4]
000000 4a 00 96 3b 31 64 f2 3d 66 2b 03 3e 37 2d d9 bc
       0.004577671 0.11835516 0.12809524 -0.026510818

generator-1/p_re_lu_5/add;generator-1/p_re_lu_5/Relu;generator-1/p_re_lu_5/Neg_1;generator-1/p_re_lu_5/Relu_1;generator-1/p_re_lu_5/mul f4 [1, 1, 4]
000000 19 71 0c c0 8a 72 42 bd 6f e8 38 bd 32 48 01 bf
       -2.194403 -0.047472514 -0.04514354 -0.50500786

generator-1/Variable_7 f4 [4]
000000 89 da ed be 59 36 c7 3e 76 0e 32 3e ed 90 d7 3e
       -0.46455792 0.3890865 0.17388329 0.42102757

generator-1/p_re_lu_6/add;generator-1/p_re_lu_6/Relu;generator-1/p_re_lu_6/Neg_1;generator-1/p_re_lu_6/Relu_1;generator-1/p_re_lu_6/mul f4 [1, 1, 4]
000000 c0 dc b2 be 12 0b 03 3f e8 7b b0 ba 19 f8 66 bd
       -0.34934044 0.51188767 -0.0013464661 -0.056388948

generator-1/Variable_9 f4 [4]
000000 51 15 0b bf bd 09 77 3e 6c c7 ad 3e f4 fa 80 3e
       -0.543294 0.24124809 0.3394121 0.25191462

generator-1/p_re_lu_7/add;generator-1/p_re_lu_7/Relu;generator-1/p_re_lu_7/Neg_1;generator-1/p_re_lu_7/Relu_1;generator-1/p_re_lu_7/mul f4 [1, 1, 4]
000000 0c ee 1f bf d1 fd 98 3f af 2f c0 3e eb 4a aa 3f
       -0.62472606 1.1952459 0.3753638 1.3304113

generator-1/Variable_11 f4 [4]
000000 94 65 de bf 1f 38 3e 3f e7 b7 65 3e 99 b4 75 3e
       -1.7374749 0.74304384 0.22433434 0.23994674

generator-1/0_b1_3 f4 [4]
000000 e8 cb 00 3e 80 61 15 3e 2e cc 9c 3d 56 cc a9 3d
       0.12577784 0.14587975 0.07656132 0.08290927

generator-1/p_re_lu_8/add;generator-1/p_re_lu_8/Relu;generator-1/p_re_lu_8/Neg_1;generator-1/p_re_lu_8/Relu_1;generator-1/p_re_lu_8/mul f4 [1, 1, 4]
000000 92 b3 1f 3f 41 33 13 3f 7f 89 5a 3d 97 f0 95 3f
       0.6238338 0.5750008 0.053353783 1.1714047

generator-1/0_b1_4 f4 [4]
000000 d1 ef dd bb aa 92 b4 be de 28 97 be fd 39 4e 3b
       -0.006772973 -0.35268146 -0.29523367 0.003146767

generator-1/p_re_lu_9/add;generator-1/p_re_lu_9/Relu;generator-1/p_re_lu_9/Neg_1;generator-1/p_re_lu_9/Relu_1;generator-1/p_re_lu_9/mul f4 [1, 1, 4]
000000 19 cf 7a be a0 7f 92 3d 93 de 83 3e df 09 8e 3e
       -0.24493064 0.07153249 0.25755748 0.27741906

generator-1/0_b1_5 f4 [4]
000000 9e a9 3e be a5 88 b0 be 99 55 82 bc 0d d6 30 be
       -0.18619391 -0.34479252 -0.015909957 -0.17269154

generator-1/p_re_lu_10/add;generator-1/p_re_lu_10/Relu;generator-1/p_re_lu_10/Neg_1;generator-1/p_re_lu_10/Relu_1;generator-1/p_re_lu_10/mul f4 [1, 1, 4]
000000 d7 0f c2 be 9f 8f e3 be 14 40 1a bf b7 71 b2 be
       -0.3790271 -0.44445512 -0.60254025 -0.34852383

generator-1/Variable_13 f4 [4]
000000 60 3e 96 3d 28 d9 66 be 12 d2 aa 3c c1 2b 57 bd
       0.07336116 -0.22543776 0.020852122 -0.05253196

generator-1/p_re_lu_11/add;generator-1/p_re_lu_11/Relu;generator-1/p_re_lu_11/Neg_1;generator-1/p_re_lu_11/Relu_1;generator-1/p_re_lu_11/mul f4 [1, 1, 4]
000000 13 0b b2 3b 7d 5a ee be c1 66 b6 be 9f 2f 45 be
       0.005433449 -0.46553412 -0.3562527 -0.19256447

generator-1/Variable_15 f4 [4]
000000 dc 7c fa 3b 1e 79 83 3d a9 f6 8e 3d 6e 75 6b be
       0.007644279 0.06419586 0.069806404 -0.22994015

generator-1/p_re_lu_12/add;generator-1/p_re_lu_12/Relu;generator-1/p_re_lu_12/Neg_1;generator-1/p_re_lu_12/Relu_1;generator-1/p_re_lu_12/mul f4 [1, 1, 4]
000000 2e 3c 76 bd e8 d0 a7 3e a9 36 ab 3e 90 57 d9 be
       -0.060115986 0.3277657 0.3344014 -0.42449617

generator-1/Variable_17 f4 [4]
000000 81 81 b2 3e 24 d5 0b 3e f2 fe 0a 3e 1e d5 82 3d
       0.3486443 0.13655525 0.13573816 0.06388305

generator-1/p_re_lu_13/add;generator-1/p_re_lu_13/Relu;generator-1/p_re_lu_13/Neg_1;generator-1/p_re_lu_13/Relu_1;generator-1/p_re_lu_13/mul f4 [1, 1, 4]
000000 51 ec eb 3f 6f ef 08 40 15 bc 05 40 0e d1 b0 3e
       1.8431493 2.1396139 2.0896046 0.34534496

generator-1/Variable_19 f4 [4]
000000 2d ca ff bd 43 fb f7 3d 67 78 85 be 7c e9 2b 3e
       -0.12489734 0.12108471 -0.26068422 0.16788286

generator-1/p_re_lu_14/add;generator-1/p_re_lu_14/Relu;generator-1/p_re_lu_14/Neg_1;generator-1/p_re_lu_14/Relu_1;generator-1/p_re_lu_14/mul f4 [1, 1, 4]
000000 46 5d 7b be 36 47 20 3f 23 59 68 be 2b ec 8b 3f
       -0.245473 0.6260866 -0.22690253 1.0931448

generator-1/Variable_21 f4 [4]
000000 33 1a a6 3e fa 56 91 bd 87 de 82 3e 5f 8c 52 bd
       0.32441863 -0.070966676 0.255604 -0.0514034

generator-1/p_re_lu_15/add;generator-1/p_re_lu_15/Relu;generator-1/p_re_lu_15/Neg_1;generator-1/p_re_lu_15/Relu_1;generator-1/p_re_lu_15/mul f4 [1, 1, 4]
000000 4c a9 c6 bf a3 6d be 3e 82 34 76 3d 17 cf b1 3e
       -1.5520415 0.3719302 0.06010867 0.3472831

generator-1/Variable_23 f4 [4]
000000 ce e1 78 bd 9f 2a 25 3f 1b 85 99 3e 5e 80 2b 3d
       -0.06076222 0.6451816 0.29984364 0.041870467

generator-1/0_b1_6 f4 [4]
000000 4d e2 0e be d6 47 3a 3e ed dd 54 3e 96 35 03 3e
       -0.13953514 0.18191466 0.20787783 0.1281341

generator-1/p_re_lu_16/add;generator-1/p_re_lu_16/Relu;generator-1/p_re_lu_16/Neg_1;generator-1/p_re_lu_16/Relu_1;generator-1/p_re_lu_16/mul f4 [1, 1, 4]
000000 50 73 81 3d 5a 78 cf 3e 39 83 02 3f 67 5d f2 3e
       0.06320822 0.40521508 0.5098148 0.47336885

generator-1/0_b1_out f4 [4]
000000 04 72 23 3d 9f f7 9a bd 4e 2e be bd d6 80 97 be
       0.039903656 -0.07566761 -0.09286176 -0.29590482

generator-2/0_b2_0 f4 [4]
000000 d2 c7 76 3e cb 9d 22 bd af 44 44 be 84 4d 18 3e
       0.24099663 -0.039701264 -0.19166826 0.1487332

generator-2/p_re_lu_51/add;generator-2/p_re_lu_51/Relu;generator-2/p_re_lu_51/Neg_1;generator-2/p_re_lu_51/Relu_1;generator-2/p_re_lu_51/mul f4 [1, 1, 4]
000000 ce 00 d3 3e dd a8 d2 3f 7a 41 78 3e b6 0f 30 3f
       0.4121155 1.6457783 0.24243727 0.68773973

generator-2/0_b2_1 f4 [4]
000000 c3 50 d8 3d 70 b4 ea 3c 85 fe 7f ba 57 89 c4 3c
       0.10562279 0.028650492 -0.00097654044 0.02399127

generator-2/p_re_lu_52/add;generator-2/p_re_lu_52/Relu;generator-2/p_re_lu_52/Neg_1;generator-2/p_re_lu_52/Relu_1;generator-2/p_re_lu_52/mul f4 [1, 1, 4]
000000 f9 8f 8d 3f d8 de 85 3f 73 d1 c8 be c3 b8 51 bf
       1.1059562 1.0458632 -0.39222297 -0.8192255

generator-2/0_b2_2 f4 [4]
000000 37 d5 1d 3d ae 5d c7 b9 8b 39 05 bd 4a c1 58 bc
       0.038533416 -0.00038026035 -0.03252558 -0.013229677

generator-2/p_re_lu_53/add;generator-2/p_re_lu_53/Relu;generator-2/p_re_lu_53/Neg_1;generator-2/p_re_lu_53/Relu_1;generator-2/p_re_lu_53/mul f4 [1, 1, 4]
000000 91 4d 47 bf cb 4b 7f bf 4e 75 14 bf 04 a1 d5 3e
       -0.7785273 -0.99725026 -0.5799149 0.41724408

generator-2/Variable_1 f4 [4]
000000 3f 72 ba be f6 c8 bd be df e5 c1 3e ee ee c1 3e
       -0.36415288 -0.37067384 0.3787069 0.378776

generator-2/p_re_lu_54/add;generator-2/p_re_lu_54/Relu;generator-2/p_re_lu_54/Neg_1;generator-2/p_re_lu_54/Relu_1;generator-2/p_re_lu_54/mul f4 [1, 1, 4]
000000 15 20 b2 be 59 30 b4 3e 77 b9 79 b5 de c6 f0 b1
       -0.34790102 0.35193136 -9.3029615e-07 -7.007528e-09

generator-2/Variable_3 f4 [4]
000000 bf d5 b7 3e 14 0e 56 ba a6 66 b4 3e 81 b9 b1 3e
       0.35905263 -0.000816555 0.35234565 0.3471184

generator-2/p_re_lu_55/add;generator-2/p_re_lu_55/Relu;generator-2/p_re_lu_55/Neg_1;generator-2/p_re_lu_55/Relu_1;generator-2/p_re_lu_55/mul f4 [1, 1, 4]
000000 2b 2e 22 20 d7 51 80 3a 8f 32 2a a8 d6 c3 07 2d
       1.373721e-19 0.0009790015 -9.447859e-15 7.717346e-12

generator-2/Variable_5 f4 [4]
000000 19 bc 37 3e 30 f5 9c 3e d6 d0 3f 3e 55 c9 9d 3e
       0.17942847 0.30655813 0.18732008 0.30817667

generator-2/p_re_lu_56/add;generator-2/p_re_lu_56/Relu;generator-2/p_re_lu_56/Neg_1;generator-2/p_re_lu_56/Relu_1;generator-2/p_re_lu_56/mul f4 [1, 1, 4]
000000 45 24 32 3c 00 00 00 00 0f 71 9e 3b 00 00 00 00
       0.010872905 0.0 0.004835255 0.0

generator-2/Variable_7 f4 [4]
000000 dc dc 0e be 09 87 89 3e a7 63 1d be 23 67 89 be
       -0.13951439 0.26860836 -0.15370046 -0.268365

generator-2/p_re_lu_57/add;generator-2/p_re_lu_57/Relu;generator-2/p_re_lu_57/Neg_1;generator-2/p_re_lu_57/Relu_1;generator-2/p_re_lu_57/mul f4 [1, 1, 4]
000000 3b 36 a6 3e 00 00 00 00 41 d2 ab 3e 4a 32 c3 be
       0.3246325 0.0 0.33558849 -0.38124305

generator-2/Variable_9 f4 [4]
000000 6b ac 0e be 63 7c a8 bd 0c 7e f9 3d c4 45 4b 3e
       -0.1393296 -0.0822685 0.12182245 0.19850832

generator-2/p_re_lu_58/add;generator-2/p_re_lu_58/Relu;generator-2/p_re_lu_58/Neg_1;generator-2/p_re_lu_58/Relu_1;generator-2/p_re_lu_58/mul f4 [1, 1, 4]
000000 e8 e7 7b 3e ba cf 31 3e 05 72 3b 36 00 00 00 00
       0.24600184 0.17364398 2.793154e-06 0.0

generator-2/Variable_11 f4 [4]
000000 ce 08 9b 3d b7 53 87 3d b0 4a 19 3e 57 05 99 3d
       0.07570039 0.06607764 0.14969897 0.074717216

generator-2/0_b2_3 f4 [4]
000000 b5 02 c6 bd e7 f1 a3 bc 9b cc de bc b5 73 ff bc
       -0.09668485 -0.020012809 -0.027197173 -0.031183103

generator-2/p_re_lu_59/add;generator-2/p_re_lu_59/Relu;generator-2/p_re_lu_59/Neg_1;generator-2/p_re_lu_59/Relu_1;generator-2/p_re_lu_59/mul f4 [1, 1, 4]
000000 cb 6b 5f 3f b1 b5 3b 3e 2d b4 38 3f d5 7e d3 3e
       0.87273854 0.18331029 0.72149926 0.41307703

generator-2/0_b2_4 f4 [4]
000000 55 e3 41 bc 99 ef 9a 3d 08 30 59 3c c8 a9 4c 3d
       -0.011833985 0.07565231 0.01325608 0.049966604

generator-2/p_re_lu_60/add;generator-2/p_re_lu_60/Relu;generator-2/p_re_lu_60/Neg_1;generator-2/p_re_lu_60/Relu_1;generator-2/p_re_lu_60/mul f4 [1, 1, 4]
000000 96 52 1b bf 8e 54 83 3f 00 f2 24 bf 6d 87 af 3d
       -0.6067289 1.0260179 -0.6443176 0.08570752

generator-2/0_b2_5 f4 [4]
000000 a0 71 09 bc 07 58 28 be fc 5f 9c 3d 39 b6 00 3e
       -0.008388907 -0.1643983 0.07635495 0.12569512

generator-2/p_re_lu_61/add;generator-2/p_re_lu_61/Relu;generator-2/p_re_lu_61/Neg_1;generator-2/p_re_lu_61/Relu_1;generator-2/p_re_lu_61/mul f4 [1, 1, 4]
000000 d7 6e b9 bf fa 07 de be 61 25 20 3f 08 54 38 3d
       -1.4486951 -0.4336546 0.62557036 0.045002013

generator-2/Variable_13 f4 [4]
000000 0f f4 5e 3e 02 e8 3d 3e 0e 0c 3d 3e 8d 97 98 bd
       0.21772788 0.18545535 0.1846163 -0.07450781

generator-2/p_re_lu_62/add;generator-2/p_re_lu_62/Relu;generator-2/p_re_lu_62/Neg_1;generator-2/p_re_lu_62/Relu_1;generator-2/p_re_lu_62/mul f4 [1, 1, 4]
000000 4f a6 a8 bf a9 d7 41 aa 38 73 8c ab e6 d1 88 bd
       -1.3175753 -1.7216666e-13 -9.979578e-13 -0.0668066

generator-2/Variable_15 f4 [4]
000000 b1 ec 51 3e fb 97 51 3e 24 a5 f4 3c 82 0e 52 3e
       0.20500447 0.20468132 0.029863901 0.20513347

generator-2/p_re_lu_63/add;generator-2/p_re_lu_63/Relu;generator-2/p_re_lu_63/Neg_1;generator-2/p_re_lu_63/Relu_1;generator-2/p_re_lu_63/mul f4 [1, 1, 4]
000000 39 48 47 bf 6d d9 53 bf fb 8d 1a 3d 0d dc 52 bf
       -0.7784458 -0.8275364 0.03773306 -0.8236702

generator-2/Variable_17 f4 [4]
000000 8d b3 08 be 66 dc 4a be ac 01 25 3e aa a9 6b 3d
       -0.13349743 -0.19810638 0.16113919 0.05753485

generator-2/p_re_lu_64/add;generator-2/p_re_lu_64/Relu;generator-2/p_re_lu_64/Neg_1;generator-2/p_re_lu_64/Relu_1;generator-2/p_re_lu_64/mul f4 [1, 1, 4]
000000 f1 5c 2a 3d b1 e2 a5 3d e8 bd 44 3e 73 a5 43 bf
       0.041592542 0.080998786 0.19213068 -0.7642433

generator-2/Variable_19 f4 [4]
000000 7b 38 f3 3d fe 19 4a bd 21 85 51 3e e6 32 53 3e
       0.11876007 -0.049341194 0.20460941 0.20624885

generator-2/p_re_lu_65/add;generator-2/p_re_lu_65/Relu;generator-2/p_re_lu_65/Neg_1;generator-2/p_re_lu_65/Relu_1;generator-2/p_re_lu_65/mul f4 [1, 1, 4]
000000 da 24 d2 b7 2d ad 8c 3e f5 13 c5 bd 10 e5 c5 bd
       -2.5051111e-05 0.27475873 -0.09622947 -0.09662831

generator-2/Variable_21 f4 [4]
000000 95 4f 00 be de f3 fa bd 9e 29 30 3e 0b 44 d5 bd
       -0.12530358 -0.12253545 0.17203376 -0.10413369

generator-2/p_re_lu_66/add;generator-2/p_re_lu_66/Relu;generator-2/p_re_lu_66/Neg_1;generator-2/p_re_lu_66/Relu_1;generator-2/p_re_lu_66/mul f4 [1, 1, 4]
000000 fc 06 87 3e 17 bc 83 3e d3 e6 37 a5 34 bb 39 be
       0.26372516 0.2572944 -1.5950926e-16 -0.18137819

generator-2/Variable_23 f4 [4]
000000 5f a3 87 3f 9b 10 63 3f 1d a2 9a bc 8e 1c 76 3d
       1.0596732 0.8869721 -0.01887613 0.060085826

generator-2/0_b2_6 f4 [4]
000000 77 ce 55 bd bb a2 4a bd 2e c8 bd 3d 78 57 1a 3c
       -0.052198853 -0.049471598 0.09266697 0.009420268

generator-2/p_re_lu_67/add;generator-2/p_re_lu_67/Relu;generator-2/p_re_lu_67/Neg_1;generator-2/p_re_lu_67/Relu_1;generator-2/p_re_lu_67/mul f4 [1, 1, 4]
000000 01 4e 1f 3f fb a9 81 3f 97 89 a6 3f bf 7d 85 3f
       0.622284 1.0129999 1.3010739 1.0429

generator-2/0_b2_out f4 [4]
000000 3f 09 44 bb b4 35 55 bb df a6 52 bb f9 37 6a bb
       -0.0029912738 -0.003253323 -0.003214292 -0.0035738929

generator-1/1_b1_0 f4 [4]
000000 93 c1 17 3d 23 ea 3b be 83 9c 84 be b8 59 ac 3c
       0.03704984 -0.18351035 -0.2590066 0.021038875

generator-1/p_re_lu_17/add;generator-1/p_re_lu_17/Relu;generator-1/p_re_lu_17/Neg_1;generator-1/p_re_lu_17/Relu_1;generator-1/p_re_lu_17/mul f4 [1, 1, 4]
000000 e1 9a 2e 3f 72 8f ba 3f 67 3c b0 3f 54 85 03 3f
       0.68205076 1.4575026 1.3768433 0.5137532

generator-1/1_b1_1 f4 [4]
000000 27 0d 7a bd b5 da c0 3d 17 4d aa bd 25 78 96 3c
       -0.0610477 0.09416715 -0.08315485 0.018367836

generator-1/p_re_lu_18/add;generator-1/p_re_lu_18/Relu;generator-1/p_re_lu_18/Neg_1;generator-1/p_re_lu_18/Relu_1;generator-1/p_re_lu_18/mul f4 [1, 1, 4]
000000 7b d1 32 3f e0 1a bd 3d f0 25 65 3f 0c 23 c6 be
       0.6985089 0.092336416 0.89511013 -0.38698614

generator-1/1_b1_2 f4 [4]
000000 d9 d0 26 3c 67 ff 2b 3e bc bf c0 bd c9 e9 11 be
       0.010181629 0.16796647 -0.094115704 -0.14249338

generator-1/p_re_lu_19/add;generator-1/p_re_lu_19/Relu;generator-1/p_re_lu_19/Neg_1;generator-1/p_re_lu_19/Relu_1;generator-1/p_re_lu_19/mul f4 [1, 1, 4]
000000 11 f7 f4 3f 22 cd 3d 40 3c 51 85 3f 11 f4 b0 3f
       1.9137899 2.9656453 1.0415416 1.3824483

generator-1/Variable_25 f4 [4]
000000 ce ac fb 3b ff 74 4f bd 28 5e 24 3c 42 1d a3 bc
       0.007680512 -0.050648686 0.010032214 -0.019911412

generator-1/p_re_lu_20/add;generator-1/p_re_lu_20/Relu;generator-1/p_re_lu_20/Neg_1;generator-1/p_re_lu_20/Relu_1;generator-1/p_re_lu_20/mul f4 [1, 1, 4]
000000 ad 79 85 bd 32 e7 df 3d 8a 33 d6 3d 33 32 7a be
       -0.065173484 0.10932769 0.10459049 -0.24433212

generator-1/Variable_27 f4 [4]
000000 01 49 8d bd ae 8d a0 bd b8 bb ae 3d b5 5d 2e 3c
       -0.0689869 -0.07839523 0.08531898 0.010642459

generator-1/p_re_lu_21/add;generator-1/p_re_lu_21/Relu;generator-1/p_re_lu_21/Neg_1;generator-1/p_re_lu_21/Relu_1;generator-1/p_re_lu_21/mul f4 [1, 1, 4]
000000 be 65 be 3d 97 4c da bd b6 b2 9c be a0 79 81 bf
       0.092967495 -0.106591396 -0.30605096 -1.0115242

generator-1/Variable_29 f4 [4]
000000 68 db 90 3d 83 e5 62 3e 0e cb d9 3c a4 3e e9 bc
       0.070730984 0.22157864 0.026586082 -0.028472252

generator-1/p_re_lu_22/add;generator-1/p_re_lu_22/Relu;generator-1/p_re_lu_22/Neg_1;generator-1/p_re_lu_22/Relu_1;generator-1/p_re_lu_22/mul f4 [1, 1, 4]
000000 08 2b bc 3f 8e 9c b5 3e c7 da 76 3f 6c 44 22 bf
       1.4700632 0.35471004 0.9642758 -0.63385653

generator-1/Variable_31 f4 [4]
000000 02 b3 eb 3e 27 8a f7 3e 89 3b a2 3e c5 93 a1 3e
       0.4603501 0.4834759 0.31686047 0.31558052

generator-1/p_re_lu_23/add;generator-1/p_re_lu_23/Relu;generator-1/p_re_lu_23/Neg_1;generator-1/p_re_lu_23/Relu_1;generator-1/p_re_lu_23/mul f4 [1, 1, 4]
000000 12 6b e3 bc 3c 5a 2a be fe 48 ce 3d 29 3f 09 3e
       -0.027761016 -0.16635984 0.10072516 0.13403

generator-1/Variable_33 f4 [4]
000000 bf 42 07 3f e4 e2 4a 3f fd 77 07 3f a0 53 07 3f
       0.5283622 0.7925246 0.5291746 0.52861977

generator-1/p_re_lu_24/add;generator-1/p_re_lu_24/Relu;generator-1/p_re_lu_24/Neg_1;generator-1/p_re_lu_24/Relu_1;generator-1/p_re_lu_24/mul f4 [1, 1, 4]
000000 6d 42 3f bf 7f ea a0 bc be b0 40 bf 54 5f 2c 3f
       -0.7471073 -0.019643066 -0.7526969 0.6733296

generator-1/Variable_35 f4 [4]
000000 57 0c c0 3d c1 2b 03 3f 0d 35 ed 3e ba 9a 3e bd
       0.09377354 0.5123864 0.46329537 -0.046534277

generator-1/1_b1_3 f4 [4]
000000 2e b6 7e bd b6 3b 04 3d c4 80 41 3e 13 26 a9 3c
       -0.06218546 0.032283507 0.18896776 0.020648038

generator-1/p_re_lu_25/add;generator-1/p_re_lu_25/Relu;generator-1/p_re_lu_25/Neg_1;generator-1/p_re_lu_25/Relu_1;generator-1/p_re_lu_25/mul f4 [1, 1, 4]
000000 37 e3 da bd ea 33 a0 3e 92 c1 2b 3f 8d 74 e6 3f
       -0.10687869 0.31289607 0.6709224 1.8004318

generator-1/1_b1_4 f4 [4]
000000 20 2f 7c bd 7f a9 99 be 7c ff 90 be c3 8a 78 3d
       -0.06156838 -0.30012128 -0.2831992 0.06067921

generator-1/p_re_lu_26/add;generator-1/p_re_lu_26/Relu;generator-1/p_re_lu_26/Neg_1;generator-1/p_re_lu_26/Relu_1;generator-1/p_re_lu_26/mul f4 [1, 1, 4]
000000 55 b3 6e 40 dd cd 23 bf 8f 57 97 be f9 a9 d5 3f
       3.7296956 -0.63986 -0.2955899 1.6692497

generator-1/1_b1_5 f4 [4]
000000 a3 54 c3 3d 20 3c d2 3b b9 db 45 3e 77 6e 8b 3c
       0.095376275 0.006415859 0.19322099 0.017020447

generator-1/p_re_lu_27/add;generator-1/p_re_lu_27/Relu;generator-1/p_re_lu_27/Neg_1;generator-1/p_re_lu_27/Relu_1;generator-1/p_re_lu_27/mul f4 [1, 1, 4]
000000 bc fd a1 3f 3a ac 4c be 62 1b 1a 3f 11 c2 2d 40
       1.2655559 -0.19987574 0.6019803 2.7149699

generator-1/Variable_37 f4 [4]
000000 45 77 a6 3d e6 a6 ee bd ce b2 88 be d1 d4 70 3d
       0.081282176 -0.11652927 -0.26698917 0.058796708

generator-1/p_re_lu_28/add;generator-1/p_re_lu_28/Relu;generator-1/p_re_lu_28/Neg_1;generator-1/p_re_lu_28/Relu_1;generator-1/p_re_lu_28/mul f4 [1, 1, 4]
000000 2f 73 25 40 42 bd b4 39 b2 c2 4c 3d da 80 37 be
       2.5851552 0.00034473283 0.049990363 -0.17920247

generator-1/Variable_39 f4 [4]
000000 ad b5 09 be 85 02 14 3d 9f 1a 4a be ff 52 2e 3e
       -0.1344821 0.036135215 -0.19736718 0.17023848

generator-1/p_re_lu_29/add;generator-1/p_re_lu_29/Relu;generator-1/p_re_lu_29/Neg_1;generator-1/p_re_lu_29/Relu_1;generator-1/p_re_lu_29/mul f4 [1, 1, 4]
000000 f6 ce 79 3f 32 95 6c be 70 f5 53 3e 0e 6c e0 be
       0.9758142 -0.23103788 0.20699096 -0.4383244

generator-1/Variable_41 f4 [4]
000000 1a 12 e1 3e e2 d9 ec be aa 74 d6 3e cd 3c 02 be
       0.43959123 -0.4625998 0.41885883 -0.12718506

generator-1/p_re_lu_30/add;generator-1/p_re_lu_30/Relu;generator-1/p_re_lu_30/Neg_1;generator-1/p_re_lu_30/Relu_1;generator-1/p_re_lu_30/mul f4 [1, 1, 4]
000000 d0 f4 cd bf 36 da 5e 3f 85 ef ba bf 39 7b 5a 3e
       -1.6090336 0.87051713 -1.4604346 0.21336068

generator-1/Variable_43 f4 [4]
000000 55 98 fd 3e 97 3e 05 bf 65 b9 05 bf 79 53 05 bf
       0.49530283 -0.5204863 -0.52236015 -0.52080494

generator-1/p_re_lu_31/add;generator-1/p_re_lu_31/Relu;generator-1/p_re_lu_31/Neg_1;generator-1/p_re_lu_31/Relu_1;generator-1/p_re_lu_31/mul f4 [1, 1, 4]
000000 c1 fe 21 be c2 19 aa 3e b3 dc a8 3e 9f d6 a6 3e
       -0.15819837 0.33222777 0.3298088 0.32585618

generator-1/Variable_45 f4 [4]
000000 67 04 04 bf 7a 3e f3 3e c0 d6 f7 be 20 60 fa be
       -0.5156922 0.47508603 -0.4840603 -0.48901463

generator-1/p_re_lu_32/add;generator-1/p_re_lu_32/Relu;generator-1/p_re_lu_32/Neg_1;generator-1/p_re_lu_32/Relu_1;generator-1/p_re_lu_32/mul f4 [1, 1, 4]
000000 52 3c a8 3e 59 87 fe bd 1f 2e b1 be 81 59 a5 be
       0.3285852 -0.12428159 -0.346055 -0.3229485

generator-1/Variable_47 f4 [4]
000000 72 2b 83 bd c0 ef 59 3f 9b 0b ae 3e 2f 43 33 3f
       -0.06404771 0.85131454 0.3399323 0.7002439

generator-1/1_b1_6 f4 [4]
000000 3d 48 86 3e 16 f9 a3 bc 14 48 c8 3c f9 88 97 3d
       0.26226988 -0.020016234 0.024448432 0.07399172

generator-1/p_re_lu_33/add;generator-1/p_re_lu_33/Relu;generator-1/p_re_lu_33/Neg_1;generator-1/p_re_lu_33/Relu_1;generator-1/p_re_lu_33/mul f4 [1, 1, 4]
000000 ab 17 49 40 d1 e0 9d 3f 13 1c 33 3f 79 48 06 3f
       3.1420696 1.2334234 0.6996471 0.52454334

generator-1/1_b1_out f4 [4]
000000 f5 d6 1c bd d4 3a e3 3c 74 d5 97 bc 6d ee 44 3d
       -0.038290936 0.027738012 -0.0185344 0.048078943

generator-2/1_b2_0 f4 [4]
000000 a1 ba c0 bd 5f be 5b bc 34 25 32 3d 57 e4 03 3d
       -0.09410597 -0.013412087 0.04349251 0.032200184

generator-2/p_re_lu_68/add;generator-2/p_re_lu_68/Relu;generator-2/p_re_lu_68/Neg_1;generator-2/p_re_lu_68/Relu_1;generator-2/p_re_lu_68/mul f4 [1, 1, 4]
000000 35 b7 0f 3f d7 f1 51 3f 8b 79 67 3f c0 c1 6d 3f
       0.56138927 0.82009643 0.90419835 0.92873764

generator-2/1_b2_1 f4 [4]
000000 ef c9 59 3e 85 50 01 be 41 17 fe 3d f2 2d 76 bb
       0.21268438 -0.12628372 0.12406779 -0.0037564007

generator-2/p_re_lu_69/add;generator-2/p_re_lu_69/Relu;generator-2/p_re_lu_69/Neg_1;generator-2/p_re_lu_69/Relu_1;generator-2/p_re_lu_69/mul f4 [1, 1, 4]
000000 54 88 5b 3f 58 89 67 bf f0 49 cc 3e 5a 5e 84 bf
       0.85754895 -0.90443945 0.3990016 -1.0341294

generator-2/1_b2_2 f4 [4]
000000 6e 83 05 be 16 18 9d 3d 31 d7 73 3e 38 ae 31 3e
       -0.13038418 0.0767061 0.23812558 0.17351615

generator-2/p_re_lu_70/add;generator-2/p_re_lu_70/Relu;generator-2/p_re_lu_70/Neg_1;generator-2/p_re_lu_70/Relu_1;generator-2/p_re_lu_70/mul f4 [1, 1, 4]
000000 d7 75 65 40 c5 8b cb 3f 85 7b 5d 3e a9 8c 75 3e
       3.5853174 1.5902029 0.2162915 0.23979439

generator-2/Variable_25 f4 [4]
000000 5a 38 81 bb 68 bc ec 3d 79 2a 2d be 50 ed 83 3c
       -0.003943485 0.11559373 -0.16910733 0.01610437

generator-2/p_re_lu_71/add;generator-2/p_re_lu_71/Relu;generator-2/p_re_lu_71/Neg_1;generator-2/p_re_lu_71/Relu_1;generator-2/p_re_lu_71/mul f4 [1, 1, 4]
000000 52 05 33 bf 78 7e 9b 3f 56 a2 9e 3d 7e 5d b0 bd
       -0.69929993 1.214797 0.07745807 -0.08611582

generator-2/Variable_27 f4 [4]
000000 49 a1 01 3e da df 95 3d ba c9 d5 bc 35 c5 48 bd
       0.12659182 0.07318087 -0.026097167 -0.049016196

generator-2/p_re_lu_72/add;generator-2/p_re_lu_72/Relu;generator-2/p_re_lu_72/Neg_1;generator-2/p_re_lu_72/Relu_1;generator-2/p_re_lu_72/mul f4 [1, 1, 4]
000000 2f a6 c9 3d 71 9f 07 3f 4a bb 34 bd 6b 0b 51 bf
       0.0984615 0.52977663 -0.044123925 -0.8165805

generator-2/Variable_29 f4 [4]
000000 f9 01 33 3e fa 1d f8 3c f1 1a 7f 3e 48 8e 13 3e
       0.17481221 0.030287731 0.24912621 0.14409745

generator-2/p_re_lu_73/add;generator-2/p_re_lu_73/Relu;generator-2/p_re_lu_73/Neg_1;generator-2/p_re_lu_73/Relu_1;generator-2/p_re_lu_73/mul f4 [1, 1, 4]
000000 66 94 a6 bc f0 e3 bd be c7 b3 22 be 74 ab 48 3f
       -0.020334434 -0.37087965 -0.15888892 0.78386617

generator-2/Variable_31 f4 [4]
000000 8c d3 8e 3e 13 59 9e 3d 50 63 51 3e 7e 90 64 3e
       0.27895772 0.07731833 0.20448041 0.22320744

generator-2/p_re_lu_74/add;generator-2/p_re_lu_74/Relu;generator-2/p_re_lu_74/Neg_1;generator-2/p_re_lu_74/Relu_1;generator-2/p_re_lu_74/mul f4 [1, 1, 4]
000000 12 19 cb be d8 32 6c bf 5b 83 88 3f 67 6a 80 3f
       -0.39667565 -0.9226508 1.0665087 1.0032471

generator-2/Variable_33 f4 [4]
000000 c3 16 18 be 64 c3 d8 3d 2b 30 a8 3e 01 ab 97 3e
       -0.14852433 0.10584143 0.3284925 0.29622653

generator-2/p_re_lu_75/add;generator-2/p_re_lu_75/Relu;generator-2/p_re_lu_75/Neg_1;generator-2/p_re_lu_75/Relu_1;generator-2/p_re_lu_75/mul f4 [1, 1, 4]
000000 60 32 b9 3d eb 61 9e 3e 7a f9 0e be 4a dd 06 3f
       0.090428114 0.3093408 -0.13962355 0.5268141

generator-2/Variable_35 f4 [4]
000000 8c 8f 39 be f1 f1 d9 3d 2c d5 9c 3f 13 a5 d4 3f
       -0.18121165 0.1064185 1.2252555 1.6612877

generator-2/1_b2_3 f4 [4]
000000 ef a5 87 3d 12 49 61 bd b0 9d e3 ba a2 56 ed bc
       0.06623446 -0.055001326 -0.001736572 -0.028971974

generator-2/p_re_lu_76/add;generator-2/p_re_lu_76/Relu;generator-2/p_re_lu_76/Neg_1;generator-2/p_re_lu_76/Relu_1;generator-2/p_re_lu_76/mul f4 [1, 1, 4]
000000 1a 6e d6 3e 3a 7c c1 bd e9 09 87 3f d1 84 eb 3d
       0.41880876 -0.094475225 1.0549899 0.11499942

generator-2/1_b2_4 f4 [4]
000000 2a 8c d7 3c 32 0a 64 3e 19 7f 76 3e 1b 65 1a 3e
       0.026311953 0.22269514 0.24071921 0.15077631

generator-2/p_re_lu_77/add;generator-2/p_re_lu_77/Relu;generator-2/p_re_lu_77/Neg_1;generator-2/p_re_lu_77/Relu_1;generator-2/p_re_lu_77/mul f4 [1, 1, 4]
000000 f9 14 e5 3f 3d b7 b2 3f 5d 99 e5 3f 81 f6 83 3f
       1.7897025 1.396217 1.7937428 1.0309602

generator-2/1_b2_5 f4 [4]
000000 26 e7 48 3e 97 c2 48 3c d5 45 7e be f0 a5 24 3c
       0.19619426 0.012253425 -0.24831326 0.010049328

generator-2/p_re_lu_78/add;generator-2/p_re_lu_78/Relu;generator-2/p_re_lu_78/Neg_1;generator-2/p_re_lu_78/Relu_1;generator-2/p_re_lu_78/mul f4 [1, 1, 4]
000000 cf 00 d0 3f f1 38 92 bf f4 ea 26 3e f1 8d 6f 40
       1.6250247 -1.1423627 0.16300565 3.7430384

generator-2/Variable_37 f4 [4]
000000 d9 8f 0c bd 87 f3 5d 3d 7a 59 1e 3e b8 b1 c9 bc
       -0.03431687 0.054187324 0.1546382 -0.024620876

generator-2/p_re_lu_79/add;generator-2/p_re_lu_79/Relu;generator-2/p_re_lu_79/Neg_1;generator-2/p_re_lu_79/Relu_1;generator-2/p_re_lu_79/mul f4 [1, 1, 4]
000000 43 f6 c5 3d 23 44 f0 3d 1f 18 b4 be b3 60 e3 3d
       0.09666111 0.11731746 -0.35174653 0.11102428

generator-2/Variable_39 f4 [4]
000000 0f de 3d 3d 2b dd 36 3d 31 9e eb 3d 1d 15 3d 3d
       0.04635435 0.044644516 0.11504782 0.046162713

generator-2/p_re_lu_80/add;generator-2/p_re_lu_80/Relu;generator-2/p_re_lu_80/Neg_1;generator-2/p_re_lu_80/Relu_1;generator-2/p_re_lu_80/mul f4 [1, 1, 4]
000000 b1 53 c6 a9 e0 e4 cf a6 40 ea 88 3f ab 55 a5 aa
       -8.8074845e-14 -1.4425547e-15 1.0696487 -2.9369332e-13

generator-2/Variable_41 f4 [4]
000000 4e 3a 61 3d 3c b5 af 3c 9c c4 93 3d 32 16 5e 3d
       0.054987244 0.021448724 0.07215235 0.054220386

generator-2/p_re_lu_81/add;generator-2/p_re_lu_81/Relu;generator-2/p_re_lu_81/Neg_1;generator-2/p_re_lu_81/Relu_1;generator-2/p_re_lu_81/mul f4 [1, 1, 4]
000000 c8 02 5b 1c f9 59 40 3e c5 a7 16 bf 53 a9 3d a7
       7.2464616e-22 0.18784322 -0.58849746 -2.632081e-15

generator-2/Variable_43 f4 [4]
000000 e2 f0 d8 bc 72 f3 8a 3d f7 8a 8b 3d 6c 45 86 3d
       -0.02648205 0.06784715 0.06813615 0.0655621

generator-2/p_re_lu_82/add;generator-2/p_re_lu_82/Relu;generator-2/p_re_lu_82/Neg_1;generator-2/p_re_lu_82/Relu_1;generator-2/p_re_lu_82/mul f4 [1, 1, 4]
000000 73 22 36 3e 18 8a f6 9d c1 92 d3 a1 9c 37 78 9d
       0.17786579 -6.5258443e-21 -1.4336762e-18 -3.2851276e-21

generator-2/Variable_45 f4 [4]
000000 ae 13 a6 3d c1 49 a3 3d 91 49 12 bd 26 19 12 bd
       0.08109222 0.07973052 -0.03571469 -0.035668515

generator-2/p_re_lu_83/add;generator-2/p_re_lu_83/Relu;generator-2/p_re_lu_83/Neg_1;generator-2/p_re_lu_83/Relu_1;generator-2/p_re_lu_83/mul f4 [1, 1, 4]
000000 00 00 00 00 d5 84 d1 a9 be e4 36 3e 17 d7 34 3e
       0.0 -9.304507e-14 0.17860696 0.17660175

generator-2/Variable_47 f4 [4]
000000 98 bf 01 3e f9 f2 38 40 49 73 3c 3e 87 b7 ad 3e
       0.12670743 2.8898299 0.18403353 0.33929083

generator-2/1_b2_6 f4 [4]
000000 22 e2 90 3d 73 a3 98 bc 9c 47 81 3e 1a 9a ae bc
       0.070743814 -0.018632626 0.25249946 -0.021313716

generator-2/p_re_lu_84/add;generator-2/p_re_lu_84/Relu;generator-2/p_re_lu_84/Neg_1;generator-2/p_re_lu_84/Relu_1;generator-2/p_re_lu_84/mul f4 [1, 1, 4]
000000 d4 b6 1c 3f a3 df 7f 3f b1 a3 3f 3f c1 a9 6f 3f
       0.61216474 0.9995062 0.7485915 0.936184

generator-2/1_b2_out f4 [4]
000000 a5 e8 4e be df 1c 4e be b8 97 4e be fe dc 4d be
       -0.20205934 -0.20128201 -0.20175064 -0.20103833

generator-1/2_b1_0 f4 [4]
000000 c6 e5 5b be a9 09 85 bc e9 b4 88 3d 81 9f 15 be
       -0.2147437 -0.016239958 0.06675131 -0.14611627

generator-1/p_re_lu_34/add;generator-1/p_re_lu_34/Relu;generator-1/p_re_lu_34/Neg_1;generator-1/p_re_lu_34/Relu_1;generator-1/p_re_lu_34/mul f4 [1, 1, 4]
000000 33 49 a8 3f 59 f9 71 be 34 a0 2c bf 74 fe 3a 3f
       1.3147339 -0.23630275 -0.6743195 0.73044515

generator-1/2_b1_1 f4 [4]
000000 fd e4 04 be 20 a6 a6 3d bf b3 b5 3c 2d 26 93 bd
       -0.12977977 0.081371546 0.022180436 -0.07185016

generator-1/p_re_lu_35/add;generator-1/p_re_lu_35/Relu;generator-1/p_re_lu_35/Neg_1;generator-1/p_re_lu_35/Relu_1;generator-1/p_re_lu_35/mul f4 [1, 1, 4]
000000 75 ba d1 3f d6 e7 03 3f 2b 9c 4b 3f bc f0 0d be
       1.6385027 0.5152563 0.7953517 -0.13861364

generator-1/2_b1_2 f4 [4]
000000 97 8e 3d bd 1d e8 12 bd a4 0a 3b be cd 14 3e 3d
       -0.046278562 -0.03586589 -0.18265778 0.046406556

generator-1/p_re_lu_36/add;generator-1/p_re_lu_36/Relu;generator-1/p_re_lu_36/Neg_1;generator-1/p_re_lu_36/Relu_1;generator-1/p_re_lu_36/mul f4 [1, 1, 4]
000000 b9 a9 72 3d cb cd af be 14 c2 04 40 ba cd 97 3e
       0.05924389 -0.34336695 2.0743456 0.29649144

generator-1/Variable_49 f4 [4]
000000 0c 79 f6 3c c7 cd 58 3e f2 e5 47 3e d3 e6 31 3d
       0.030087017 0.21172248 0.19521311 0.04343302

generator-1/p_re_lu_37/add;generator-1/p_re_lu_37/Relu;generator-1/p_re_lu_37/Neg_1;generator-1/p_re_lu_37/Relu_1;generator-1/p_re_lu_37/mul f4 [1, 1, 4]
000000 97 60 11 40 4d e3 af bf eb fc 5d bf 75 2f 83 be
       2.2715204 -1.3741242 -0.8671405 -0.25622144

generator-1/Variable_51 f4 [4]
000000 ee 31 1d 3e 31 93 6f bc 49 80 4e 3a 75 bd ab 3e
       0.15351078 -0.0146224955 0.00078773923 0.33542982

generator-1/p_re_lu_38/add;generator-1/p_re_lu_38/Relu;generator-1/p_re_lu_38/Neg_1;generator-1/p_re_lu_38/Relu_1;generator-1/p_re_lu_38/mul f4 [1, 1, 4]
000000 4a ae ba 3e b0 4b b6 3f 16 e1 e5 3f e6 5e 58 c0
       0.36461097 1.4241848 1.7959316 -3.3807921

generator-1/Variable_53 f4 [4]
000000 45 5c 69 3d 9c cd 5e 3f 35 5a 7a 3e 2f cc f7 3c
       0.05697276 0.87032485 0.24448474 0.03024873

generator-1/p_re_lu_39/add;generator-1/p_re_lu_39/Relu;generator-1/p_re_lu_39/Neg_1;generator-1/p_re_lu_39/Relu_1;generator-1/p_re_lu_39/mul f4 [1, 1, 4]
000000 2a c3 b5 3d 85 e6 53 be 89 c7 3a bf e7 9b e1 3e
       0.08875115 -0.20693405 -0.72960716 0.44064257

generator-1/Variable_55 f4 [4]
000000 33 a2 8a 3d 9a a7 61 be 38 05 4f 3f fa fa 73 bd
       0.06769218 -0.22036591 0.8086734 -0.05956552

generator-1/p_re_lu_40/add;generator-1/p_re_lu_40/Relu;generator-1/p_re_lu_40/Neg_1;generator-1/p_re_lu_40/Relu_1;generator-1/p_re_lu_40/mul f4 [1, 1, 4]
000000 c5 47 77 bc 46 75 9d bf c6 f2 c3 bf 58 f8 5b 3e
       -0.015092795 -1.2301414 -1.5308464 0.21481454

generator-1/Variable_57 f4 [4]
000000 ba e4 73 bd d0 01 35 3f 33 cd 87 bd a2 06 84 3f
       -0.059544303 0.7070589 -0.066309355 1.0314524

generator-1/p_re_lu_41/add;generator-1/p_re_lu_41/Relu;generator-1/p_re_lu_41/Neg_1;generator-1/p_re_lu_41/Relu_1;generator-1/p_re_lu_41/mul f4 [1, 1, 4]
000000 1f 3d d8 3e 5f 5d d3 bb b7 be 0f 3f 00 4b a8 be
       0.42234132 -0.0064503397 0.5615038 -0.3286972

generator-1/Variable_59 f4 [4]
000000 0b af a2 bd b5 3b 5b 3e 32 42 6c 40 dc b6 91 be
       -0.07943543 0.21409495 3.6915402 -0.28459823

generator-1/2_b1_3 f4 [4]
000000 e8 68 0b bd b9 fe 6b bd ae 68 27 3e ae 57 8e 3c
       -0.034035593 -0.05761597 0.16348526 0.017375793

generator-1/p_re_lu_42/add;generator-1/p_re_lu_42/Relu;generator-1/p_re_lu_42/Neg_1;generator-1/p_re_lu_42/Relu_1;generator-1/p_re_lu_42/mul f4 [1, 1, 4]
000000 50 93 92 3e fc 24 10 3f 46 b0 4a 3f 50 80 fe bf
       0.28628016 0.56306434 0.7917522 -1.9882908

generator-1/2_b1_4 f4 [4]
000000 21 69 02 3d 7e 30 c4 3d c2 7a 1c be 39 b6 67 be
       0.03183854 0.09579562 -0.15281203 -0.22628106

generator-1/p_re_lu_43/add;generator-1/p_re_lu_43/Relu;generator-1/p_re_lu_43/Neg_1;generator-1/p_re_lu_43/Relu_1;generator-1/p_re_lu_43/mul f4 [1, 1, 4]
000000 06 42 f0 bd 68 05 61 be 49 ce 79 40 b8 8b 12 bf
       -0.11731343 -0.21974719 3.9032156 -0.57244444

generator-1/2_b1_5 f4 [4]
000000 59 9d 65 3d 08 c4 9a 3e 5a 3b 75 3d 1a 8a 48 bd
       0.05605826 0.30227685 0.059871055 -0.04895983

generator-1/p_re_lu_44/add;generator-1/p_re_lu_44/Relu;generator-1/p_re_lu_44/Neg_1;generator-1/p_re_lu_44/Relu_1;generator-1/p_re_lu_44/mul f4 [1, 1, 4]
000000 41 ac 4b 40 bf fb ae 3f 57 6e c1 3e df c5 b4 be
       3.1823885 1.3670577 0.37779495 -0.35307214

generator-1/Variable_61 f4 [4]
000000 11 c5 40 be 6c 09 05 3e 6d 9d 4d be 3e a7 22 3e
       -0.18825175 0.12991875 -0.20079584 0.1588411

generator-1/p_re_lu_45/add;generator-1/p_re_lu_45/Relu;generator-1/p_re_lu_45/Neg_1;generator-1/p_re_lu_45/Relu_1;generator-1/p_re_lu_45/mul f4 [1, 1, 4]
000000 b7 ae f3 3d 70 50 c9 3f 79 67 fd 3d 98 08 a2 3f
       0.118985586 1.5727673 0.123732515 1.2658873

generator-1/Variable_63 f4 [4]
000000 cb f5 53 3e f9 d4 54 3e 6d 34 a2 3e d5 38 e2 bd
       0.20699231 0.20784368 0.31680623 -0.11045996

generator-1/p_re_lu_46/add;generator-1/p_re_lu_46/Relu;generator-1/p_re_lu_46/Neg_1;generator-1/p_re_lu_46/Relu_1;generator-1/p_re_lu_46/mul f4 [1, 1, 4]
000000 86 9f b7 be 7e 9c b6 be 86 c9 9c 3e e1 8f 82 3e
       -0.35863894 -0.3566627 0.306225 0.25500396

generator-1/Variable_65 f4 [4]
000000 9d ad 70 3d 8b 65 16 3e 52 6b b2 3d 8b 21 a4 be
       0.05875932 0.14687173 0.08711876 -0.3205684

generator-1/p_re_lu_47/add;generator-1/p_re_lu_47/Relu;generator-1/p_re_lu_47/Neg_1;generator-1/p_re_lu_47/Relu_1;generator-1/p_re_lu_47/mul f4 [1, 1, 4]
000000 6c 6a 17 3e a2 98 3b 3e f8 e0 0d 3f 77 9c 78 be
       0.1478669 0.18319944 0.554214 -0.24278437

generator-1/Variable_67 f4 [4]
000000 cb f1 d7 bd 97 f4 74 3c b2 1a a6 bd a9 a9 fa 3b
       -0.10544165 0.014950893 -0.081105605 0.0076496196

generator-1/p_re_lu_48/add;generator-1/p_re_lu_48/Relu;generator-1/p_re_lu_48/Neg_1;generator-1/p_re_lu_48/Relu_1;generator-1/p_re_lu_48/mul f4 [1, 1, 4]
000000 02 d4 21 bf 74 d0 a3 3e 34 ff 3e bf bb 8f a6 3e
       -0.63214123 0.31994975 -0.7460816 0.32531533

generator-1/Variable_69 f4 [4]
000000 3d 75 25 3e 95 63 99 bc 28 ad f0 bd 5f a7 47 3a
       0.16158004 -0.018724242 -0.11751777 0.0007616188

generator-1/p_re_lu_49/add;generator-1/p_re_lu_49/Relu;generator-1/p_re_lu_49/Neg_1;generator-1/p_re_lu_49/Relu_1;generator-1/p_re_lu_49/mul f4 [1, 1, 4]
000000 ec 85 a4 be 0b 07 a4 3e b1 63 9f 3e cb a4 a6 3e
       -0.32133424 0.32036623 0.31130746 0.32547602

generator-1/Variable_71 f4 [4]
000000 6e 63 1a bf 54 fe c4 be 1a b2 a5 3f be e3 1d 40
       -0.6030797 -0.38475287 1.2944977 2.4670253

generator-1/2_b1_6 f4 [4]
000000 a3 d4 ad 3c 1b f9 4f bc c4 65 61 bd 00 62 07 3e
       0.021219557 -0.012693669 -0.055028692 0.13220978

generator-1/p_re_lu_50/add;generator-1/p_re_lu_50/Relu;generator-1/p_re_lu_50/Neg_1;generator-1/p_re_lu_50/Relu_1;generator-1/p_re_lu_50/mul f4 [1, 1, 4]
000000 12 1a f0 3f 43 ed 44 40 d2 6e 29 3f 88 62 3c 40
       1.8757956 3.0769813 0.66184723 2.9435139

generator-1/2_b1_out f4 [4]
000000 93 2d 97 bd dd e1 50 be ce bd 53 be b4 a9 a1 bd
       -0.073817395 -0.2039866 -0.20677873 -0.078936964

generator-2/2_b2_0 f4 [4]
000000 0c 95 fb bd a9 74 80 3e c9 fe 63 3e 74 65 5f bd
       -0.12284288 0.25089005 0.22265162 -0.054540113

generator-2/p_re_lu_85/add;generator-2/p_re_lu_85/Relu;generator-2/p_re_lu_85/Neg_1;generator-2/p_re_lu_85/Relu_1;generator-2/p_re_lu_85/mul f4 [1, 1, 4]
000000 f8 10 94 3e 73 a2 7e 3e 49 cc 0e 3d c8 28 8f 3e
       0.28919196 0.24866657 0.03486279 0.279608

generator-2/2_b2_1 f4 [4]
000000 0a 8a 5b 3c 05 df 04 3d 37 d1 05 bd ec 5e aa 3d
       0.01339961 0.03243925 -0.032670226 0.08318886

generator-2/p_re_lu_86/add;generator-2/p_re_lu_86/Relu;generator-2/p_re_lu_86/Neg_1;generator-2/p_re_lu_86/Relu_1;generator-2/p_re_lu_86/mul f4 [1, 1, 4]
000000 36 a1 37 3d 9f 20 8f 3f 2a ff 32 3e cc 57 05 3f
       0.044831477 1.118183 0.1748015 0.5208709

generator-2/2_b2_2 f4 [4]
000000 7a a8 24 3d b0 e6 0d be c6 94 fa 3d 0e 06 cf 3d
       0.040199734 -0.13857532 0.122354075 0.10108577

generator-2/p_re_lu_87/add;generator-2/p_re_lu_87/Relu;generator-2/p_re_lu_87/Neg_1;generator-2/p_re_lu_87/Relu_1;generator-2/p_re_lu_87/mul f4 [1, 1, 4]
000000 47 25 44 bf 99 b9 f3 be a2 63 9e 3f 34 49 1e 3e
       -0.7661938 -0.47602537 1.2374156 0.15457612

generator-2/Variable_49 f4 [4]
000000 33 69 2e 3d 4f a1 df 3d d1 3a d5 3d 65 66 1b 3e
       0.042580795 0.10919439 0.10411609 0.15175779

generator-2/p_re_lu_88/add;generator-2/p_re_lu_88/Relu;generator-2/p_re_lu_88/Neg_1;generator-2/p_re_lu_88/Relu_1;generator-2/p_re_lu_88/mul f4 [1, 1, 4]
000000 8b 79 3a bf 4a be 92 be 4b 42 8b be 1d 51 ff be
       -0.7284171 -0.28660804 -0.27199015 -0.49866572

generator-2/Variable_51 f4 [4]
000000 db c6 8a 3d b1 63 ae 3d 32 80 dc 3d 94 a1 e0 3d
       0.0677621 0.085151084 0.10766639 0.109683186

generator-2/p_re_lu_89/add;generator-2/p_re_lu_89/Relu;generator-2/p_re_lu_89/Neg_1;generator-2/p_re_lu_89/Relu_1;generator-2/p_re_lu_89/mul f4 [1, 1, 4]
000000 94 26 8e 3d da 06 34 be 3f f4 80 3e bd e1 12 be
       0.06940952 -0.17580739 0.25186345 -0.14343925

generator-2/Variable_53 f4 [4]
000000 ea 22 ee bd 8f 03 f3 bc af 4d 8c b9 3a 94 7e 3d
       -0.11627753 -0.029664783 -0.0002676076 0.06215308

generator-2/p_re_lu_90/add;generator-2/p_re_lu_90/Relu;generator-2/p_re_lu_90/Neg_1;generator-2/p_re_lu_90/Relu_1;generator-2/p_re_lu_90/mul f4 [1, 1, 4]
000000 a0 27 e8 3e 0f 4d bc 3e 68 10 b0 be d6 ae ba 3f
       0.4534273 0.3677754 -0.34387517 1.4584606

generator-2/Variable_55 f4 [4]
000000 08 3d 91 be a4 b5 82 3e 26 e6 b0 3e 9f a0 96 be
       -0.28366876 0.25529206 0.3455059 -0.2941942

generator-2/p_re_lu_91/add;generator-2/p_re_lu_91/Relu;generator-2/p_re_lu_91/Neg_1;generator-2/p_re_lu_91/Relu_1;generator-2/p_re_lu_91/mul f4 [1, 1, 4]
000000 24 64 05 3f 37 c5 5e bf ad 69 00 be fd ba ea 3e
       0.5210593 -0.87019676 -0.12540312 0.45845786

generator-2/Variable_57 f4 [4]
000000 05 95 dd be b0 8f c1 be 75 86 f8 be 6a b5 c4 be
       -0.43277755 -0.37804937 -0.48540083 -0.38419658

generator-2/p_re_lu_92/add;generator-2/p_re_lu_92/Relu;generator-2/p_re_lu_92/Neg_1;generator-2/p_re_lu_92/Relu_1;generator-2/p_re_lu_92/mul f4 [1, 1, 4]
000000 35 8c 24 3f 32 c5 04 3f 15 61 23 bf 04 ca 06 3f
       0.6427644 0.51863396 -0.6382001 0.52652

generator-2/Variable_59 f4 [4]
000000 f2 fb ad be 29 39 8c be 54 0f d7 3d c1 6e a3 3f
       -0.33981282 -0.2738736 0.105009705 1.2768174

generator-2/2_b2_3 f4 [4]
000000 08 19 29 3c 52 b4 55 3a 14 24 82 bd 74 9b b0 3c
       0.010320909 0.0008152175 -0.063545376 0.0215585

generator-2/p_re_lu_93/add;generator-2/p_re_lu_93/Relu;generator-2/p_re_lu_93/Neg_1;generator-2/p_re_lu_93/Relu_1;generator-2/p_re_lu_93/mul f4 [1, 1, 4]
000000 aa 84 5a 3f 5e 9c 96 3f 9a 57 a1 3e 7f ec d1 3f
       0.8535868 1.176647 0.31512147 1.6400298

generator-2/2_b2_4 f4 [4]
000000 47 9f 26 bb 9a a2 0e bd 83 9d 85 ba fc 54 e6 3c
       -0.0025424527 -0.034823038 -0.0010194037 0.028116696

generator-2/p_re_lu_94/add;generator-2/p_re_lu_94/Relu;generator-2/p_re_lu_94/Neg_1;generator-2/p_re_lu_94/Relu_1;generator-2/p_re_lu_94/mul f4 [1, 1, 4]
000000 c8 5d a2 3e e1 be 81 3f a6 30 f5 3e 11 12 91 3e
       0.31712174 1.0136377 0.47888678 0.28334096

generator-2/2_b2_5 f4 [4]
000000 80 e8 d8 bb c5 16 f6 bb db 6b 35 3b 68 4d 13 bc
       -0.006619513 -0.0075100386 0.0027682695 -0.008990623

generator-2/p_re_lu_95/add;generator-2/p_re_lu_95/Relu;generator-2/p_re_lu_95/Neg_1;generator-2/p_re_lu_95/Relu_1;generator-2/p_re_lu_95/mul f4 [1, 1, 4]
000000 a1 85 83 bf fe 51 df be 0a 90 33 bf 14 42 6a bf
       -1.0275155 -0.43617243 -0.7014166 -0.9150708

generator-2/Variable_61 f4 [4]
000000 1e ab 29 bd 9e fb 25 bd ef 65 1f 3d d6 ec 01 3e
       -0.041422956 -0.040523164 0.03891557 0.12688002

generator-2/p_re_lu_96/add;generator-2/p_re_lu_96/Relu;generator-2/p_re_lu_96/Neg_1;generator-2/p_re_lu_96/Relu_1;generator-2/p_re_lu_96/mul f4 [1, 1, 4]
000000 47 18 9b be f9 ec 99 be 0f 35 20 3d 72 8a 17 3f
       -0.3029196 -0.30063608 0.0391131 0.59195626

generator-2/Variable_63 f4 [4]
000000 5a 2d 53 bd ab 28 2d bd c5 58 fc 3d eb e6 ae 3d
       -0.051556922 -0.042275112 0.12321619 0.08540138

generator-2/p_re_lu_97/add;generator-2/p_re_lu_97/Relu;generator-2/p_re_lu_97/Neg_1;generator-2/p_re_lu_97/Relu_1;generator-2/p_re_lu_97/mul f4 [1, 1, 4]
000000 7d c2 a0 be 68 e1 50 bf 80 73 1f 3e 66 7f c2 3e
       -0.31398383 -0.8159394 0.15571404 0.37987822

generator-2/Variable_65 f4 [4]
000000 e4 bc 5a bc 8b 66 51 be 8c aa ca 3c ec 79 2d be
       -0.013350699 -0.20449273 0.024739526 -0.16941041

generator-2/p_re_lu_98/add;generator-2/p_re_lu_98/Relu;generator-2/p_re_lu_98/Neg_1;generator-2/p_re_lu_98/Relu_1;generator-2/p_re_lu_98/mul f4 [1, 1, 4]
000000 d4 7f 06 3e 5d 6c 26 3e 39 76 28 bf f7 73 39 3e
       0.131347 0.16252275 -0.65805393 0.18110643

generator-2/Variable_67 f4 [4]
000000 b5 12 a9 be 14 4c c4 be 60 03 8d 3e 19 42 b2 be
       -0.33022085 -0.38339293 0.27541637 -0.34816054

generator-2/p_re_lu_99/add;generator-2/p_re_lu_99/Relu;generator-2/p_re_lu_99/Neg_1;generator-2/p_re_lu_99/Relu_1;generator-2/p_re_lu_99/mul f4 [1, 1, 4]
000000 ac 10 3a bf b5 71 42 bf b1 a7 74 3e 5c e7 3a bf
       -0.7268169 -0.75954753 0.23892094 -0.73009276

generator-2/Variable_69 f4 [4]
000000 c2 1a 2c be fe df 63 bf 6f 4a 9a be d0 a2 77 bf
       -0.16807082 -0.8901366 -0.30134913 -0.9673281

generator-2/p_re_lu_100/add;generator-2/p_re_lu_100/Relu;generator-2/p_re_lu_100/Neg_1;generator-2/p_re_lu_100/Relu_1;generator-2/p_re_lu_100/mul f4 [1, 1, 4]
000000 f9 c9 71 3f ce ec 96 3f ff ca 3e bf 71 12 9f 3f
       0.9444881 1.1791017 -0.745285 1.2427503

generator-2/Variable_71 f4 [4]
000000 e9 96 74 3d 94 5d d5 3f 93 14 17 3f ac e6 3c 3e
       0.05971423 1.6669183 0.5901577 0.1844737

generator-2/2_b2_6 f4 [4]
000000 07 bb 97 bc c2 fd 2d 3d 10 e9 bf bd 7e cf 23 bd
       -0.018521799 0.04247833 -0.09370625 -0.0399928

generator-2/p_re_lu_101/add;generator-2/p_re_lu_101/Relu;generator-2/p_re_lu_101/Neg_1;generator-2/p_re_lu_101/Relu_1;generator-2/p_re_lu_101/mul f4 [1, 1, 4]
000000 63 67 cd 3e fe cf d4 3f 39 d8 51 be 9a fe 04 3f
       0.4011794 1.6625974 -0.20492639 0.5195099

generator-2/2_b2_out f4 [4]
000000 e5 43 aa bd 4a 40 a8 bd 2b 2b a6 bd 83 6a a5 bd
       -0.08313731 -0.08215387 -0.081137024 -0.08076956

generator-1/Conv2D f4 [4, 3, 3, 4]
000000 9d b7 8d 3c 23 ec 60 3c 30 7f 8e bd 1a 60 18 3c
       0.017299468 0.013728174 -0.06957853 0.009300256
000010 33 50 a3 bc c6 ad 18 3c 6b 54 13 be e1 d4 94 3b
       -0.019935703 0.009318775 -0.14387672 0.0045419787
000020 14 07 8d bc 01 ba 07 3c ff 0f 92 bd b7 50 65 3c
       -0.01721529 0.008284093 -0.07131957 0.013996295
000030 ae 51 91 bc 16 d7 3f 3c 7c ed 10 be d2 de ec 3b
       -0.017739143 0.011708995 -0.14153093 0.0072287107
000040 7a d7 8e 3e f4 03 b3 3e d0 18 28 3e 6e 44 a9 3e
       0.2789877 0.34963953 0.16415715 0.3306002
000050 ed c8 d2 3a ca b6 b0 3d 4d 1d a5 bd 4a c7 8c 3d
       0.0016081609 0.08628614 -0.08062229 0.06873949
000060 c7 8d b2 bc fb c7 d0 3b 11 9c 8e bd b4 79 3d 3c
       -0.02179612 0.006371496 -0.06963361 0.011564661
000070 cd 7a 40 bb 9c 85 ad 3d 67 d7 96 bd fd 9c 91 3d
       -0.002937007 0.084727496 -0.073653035 0.07110021
000080 19 65 3d bc 20 47 24 3d cc 2a 0e bd a3 b7 31 3d
       -0.011559748 0.040106893 -0.034708783 0.04338802
000090 09 ec e0 3c 86 54 82 3d 6f 49 86 bc b1 3b 65 3d
       0.0274563 0.06363778 -0.016392438 0.05596513
0000a0 1b 6b e3 3d 87 57 d9 3d d6 02 4c be b4 6b c2 3d
       0.11104413 0.10612398 -0.19922957 0.09493199
0000b0 8d 7c 98 bb 31 2a 45 3c 06 ac 89 3d ba e8 7e 3b
       -0.0046535195 0.012033985 0.06722264 0.003889604
0000c0 73 f9 e9 3d fa cf db 3d e3 9e 53 be 29 42 be 3d
       0.11424532 0.10733028 -0.20666079 0.09289963
0000d0 2c ec 04 be fa 4f 30 be fc 3c d3 be 23 a3 1f be
       -0.12980717 -0.17218009 -0.41257465 -0.15589575
0000e0 ff ef a6 3c 8a 6e 3d 3c 24 48 10 3c 65 05 cf 3c
       0.02037811 0.011561999 0.008806262 0.025271127
0000f0 ba 9f ad bc 70 33 44 3c 80 ec 8a 3d 29 fd 19 3c
       -0.021194328 0.011975154 0.0678339 0.009398737
000100 5c dc e5 3c 38 7c b1 3c a7 2a 06 bc 5d 51 fc 3c
       0.028059177 0.021665677 -0.00818888 0.030800516
000110 11 e4 c1 bd 95 29 2f bd dd cb 12 3e 6a 89 5d bd
       -0.09467328 -0.042764265 0.1433558 -0.054086126
000120 f9 08 a0 bc 09 32 9d 3c a7 a9 63 bd 53 7f 41 3c
       -0.019535528 0.019188898 -0.055581715 0.011810142
000130 c8 1f ab 3d 2f e8 51 bc 1e a6 74 be f4 c1 94 bb
       0.08355671 -0.012811705 -0.23891494 -0.0045397226
000140 d6 63 de 3c 97 5a 37 3c 95 30 84 bb 7d a2 a9 ba
       0.027147215 0.011191032 -0.0040341117 -0.0012942102
000150 26 22 9d 3d cb ce 63 bc af f3 6c be cc da 1d bb
       0.07672529 -0.013904284 -0.23139833 -0.0024086712
000160 63 d5 8b 3e 6c e3 b2 3d 19 59 a8 be 32 54 55 3d
       0.2731124 0.087347835 -0.32880476 0.052082248
000170 f0 1a 4f 3d 3d b7 8a bc 95 f7 24 be 0c 40 fd bc
       0.0505628 -0.016933078 -0.1611007 -0.030914329
000180 53 5c e2 3c e0 ce 67 3c 33 e4 9c 3b da c2 f5 ba
       0.027631914 0.014148444 0.0047879457 -0.0018750087
000190 72 75 58 3d 9e 57 c1 bc 33 ab 1c be 21 c0 06 bd
       0.05284638 -0.02360135 -0.15299682 -0.032898072
0001a0 65 d2 99 3c 95 54 fe bc f7 52 09 3c c0 dc 11 bd
       0.018777082 -0.031046191 0.008381597 -0.035610914
0001b0 8b b8 da bb 02 7f 87 bd 97 21 d7 3d ac 7b 5b bd
       -0.0066748313 -0.06616022 0.10504454 -0.05358474
0001c0 2e b5 4c 3d 45 75 ac bd d2 e5 47 3c 15 12 88 bd
       0.049977474 -0.08420805 0.0122007895 -0.06644074
0001d0 3c e9 c1 3d 38 c7 fb bc 25 3d cf 3d fe 81 3c bd
       0.09468314 -0.030734643 0.10119084 -0.046022408
0001e0 04 9d 55 3d 85 f8 a0 bd 79 c9 6f 3c 89 b3 7a bd
       0.052151695 -0.07859901 0.014635437 -0.061206374
0001f0 b7 39 9a 3e 15 dd 0e 3e 61 13 dd 3e 6f 5b 81 3d
       0.30122158 0.13951524 0.43178847 0.06316268
000200 4d fb 9f 3d e4 ad 14 be bc f3 2e 3c 3c 08 f0 bd
       0.07811604 -0.14519459 0.010678228 -0.117203206
000210 13 61 bb 3d 01 e2 f0 bc fd 0b bd 3d 4a ec 31 bd
       0.09149375 -0.029404642 0.09230802 -0.043438233
000220 e1 7f b6 3d d0 4f 0f be 7e 14 c1 bb f7 a3 f1 bd
       0.0891111 -0.1399529 -0.0058923354 -0.11798852
000230 02 2d f8 3d 0e 67 08 bd 91 de 9c 3d c7 2a 63 bd
       0.121179596 -0.033301406 0.07659639 -0.055460718

generator-1/Conv2D_1 f4 [4, 3, 3, 4]
000000 23 43 88 3d eb f7 40 bd 9b 57 55 3e 54 87 ec be
       0.0665343 -0.047111433 0.208342 -0.46196997
000010 39 cf 3f 3e 85 cc 40 be 1d 7e 48 3e 4a 5f 6d 3e
       0.18731393 -0.18828018 0.19579358 0.23180881
000020 61 6e b3 3c b9 db 98 3c 19 88 04 be 88 a0 1a be
       0.021903219 0.01865946 -0.12942542 -0.151003
000030 55 1f 35 3e 15 12 4f be 60 50 85 3e f8 57 3d 3e
       0.17687733 -0.20221741 0.26037884 0.18490589
000040 19 97 9c be cf 89 d2 be 49 a1 f5 3e 3d e1 70 bf
       -0.30584028 -0.41120765 0.47974613 -0.94093686
000050 54 4e 4d 3e de ca db bd 23 47 bc 3e 42 4d da 3e
       0.20049411 -0.10732053 0.36773023 0.42637068
000060 5c af b4 3b 6a 1a 5f 3c 62 88 71 bd 24 e3 43 be
       0.0055140685 0.013617137 -0.058967955 -0.19129616
000070 05 e4 7c 3e f4 87 18 be 54 9c e0 3e 56 da c8 3e
       0.24696358 -0.14895612 0.4386927 0.39229077
000080 a4 9d 79 3d 1a 9e 53 3e 84 0b 58 3e 74 74 0c be
       0.060941353 0.2066578 0.21098143 -0.13716298
000090 52 42 00 3d fc 64 f3 bc 80 ee 69 3e 25 99 ac 3d
       0.031313248 -0.029711239 0.22844887 0.084276475
0000a0 26 52 0d bd 09 37 0f be 16 25 30 be 91 87 fd 3c
       -0.03450217 -0.13985838 -0.17201647 0.030948432
0000b0 c6 14 29 3d 38 e0 05 3e d3 f2 f4 bd df 30 fd 3d
       0.041279577 0.13073814 -0.119603775 0.12362837
0000c0 28 9a 8e bc 97 fa 12 be 22 9a 51 be b4 be d4 3c
       -0.017407492 -0.14353405 -0.20468953 0.02596984
0000d0 39 17 46 be 1a 39 cc bc 4a 96 c6 be e7 8b 9b be
       -0.19344796 -0.024929572 -0.38786536 -0.30380175
0000e0 05 fb bd bb 8d 5d 49 3d a0 60 36 be 02 5d b4 bc
       -0.005797746 0.049161483 -0.17810297 -0.022017006
0000f0 d7 db 1c 3d 81 18 23 3e 55 0f 05 be df e8 fc 3d
       0.038295593 0.15927316 -0.1299413 0.12349104
000100 76 a8 3e bc b3 92 52 3d b7 6c 23 be 4e ab 0a bd
       -0.011636844 0.051409435 -0.1595944 -0.033854775
000110 7b c6 8d 3d 06 54 b3 3c 2b 72 0b 3e b7 27 75 3e
       0.06922623 0.021890651 0.1361777 0.23940931
000120 46 04 a6 3d 8d 47 69 3d 50 bb 2e 3e ee 49 cd 3c
       0.08106284 0.056953 0.17063642 0.025059666
000130 b4 37 2a 3e 73 eb e7 3b bb d3 ce bc bf ef 4b be
       0.16622812 0.0070776283 -0.025247445 -0.19915675
000140 bd 5d 0b be 50 0c 14 3d 15 c2 33 3d fe 6c 53 3d
       -0.13609977 0.036144555 0.043886263 0.051617615
000150 f9 9b 2e 3e 29 c7 cf 3c fa 4d 0c 3d c7 56 77 be
       0.17051686 0.025363522 0.03425405 -0.24154197
000160 9c c8 c3 3e 6c 05 7b 3d 67 3a 2c 3e 57 22 00 3f
       0.3823899 0.061284468 0.16819154 0.500524
000170 6f 3a 00 be 81 a1 e8 3d 39 2e 20 be 1f 71 17 be
       -0.1252229 0.113589294 -0.15642633 -0.14789246
000180 8d 4a 11 be 84 8b bf 3c 6e 1c 9f 3c 93 6f c0 3d
       -0.14188595 0.023381956 0.019422736 0.09396281
000190 7e fc 05 be e4 85 cd 3d e5 2d 58 be 59 36 0e be
       -0.130846 0.10035303 -0.21111257 -0.1388792
0001a0 4b e1 2f be a0 72 42 3d a5 d0 df bd e7 c7 a5 bc
       -0.17175786 0.047472596 -0.10928468 -0.020236922
0001b0 16 45 02 be 20 12 2b ba 5d 43 09 bf ae 3f b7 3e
       -0.12721667 -0.0006525833 -0.53618413 0.3579077
0001c0 0b 49 54 bd 0b a8 1b 3e 80 b0 83 be ef e8 58 3e
       -0.05182747 0.15200822 -0.25720596 0.21182607
0001d0 a6 08 4c 3d 4c 06 01 be 2f e1 9a 3d 02 58 12 3d
       0.049812935 -0.12600058 0.075624816 0.035728462
0001e0 3c 3b 8b bd 28 25 f8 3d e3 19 82 be f9 e9 6e 3e
       -0.067984074 0.12116462 -0.25410375 0.23331441
0001f0 8d 06 30 bd 93 da b2 3e 63 5a bc bc 93 6f 52 3e
       -0.042974997 0.34932384 -0.022992318 0.20550375
000200 cf 52 cc 3c 99 47 16 be 51 28 29 3e 4c c8 87 3d
       0.02494183 -0.1467575 0.16519286 0.066300005
000210 92 b4 35 3d d1 44 1f be 93 2e e4 3c 73 d2 68 3d
       0.04436166 -0.15553595 0.02785424 0.056841325
000220 f1 8f c0 3c be 5f 05 be 88 4f 1b 3e 08 61 6d 3d
       0.023506137 -0.13024804 0.15167058 0.057953864
000230 39 28 b1 3d f0 26 29 be fd 28 8f 3d 84 3e 44 bc
       0.0865025 -0.1651876 0.0699024 -0.0119777955

generator-1/Conv2D_2 f4 [4, 3, 3, 4]
000000 06 69 d0 3d 7d b4 b1 bd 91 cd 89 3d 43 22 c9 3d
       0.10176282 -0.086770035 0.06728662 0.09820988
000010 1d 5d 88 3e 4b 36 1c 3d 46 b3 7e be 42 4c 23 3e
       0.2663354 0.038137715 -0.24873075 0.15947059
000020 ef 77 2e 3d 5c f2 38 be c8 dd 9b bb 5e 67 fe bc
       0.042594846 -0.18061203 -0.004756663 -0.031055149
000030 e2 05 83 3e ff 87 10 3d a7 6f 84 be 15 fa cf 3d
       0.25590426 0.035285946 -0.25866434 0.10155121
000040 34 1e 95 bf 52 9a 81 be c2 5f 6b 3e 0c 7f cc be
       -1.1649842 -0.2531305 0.22985747 -0.3994068
000050 71 f7 48 3e 08 6b 5e 3e 99 9e b9 bd ff 9f 08 bd
       0.19625641 0.21720517 -0.09063453 -0.03335571
000060 a3 4a 57 3d a2 5e 3d be 4d 90 bb bc 28 38 28 bd
       0.052561413 -0.18493131 -0.022895956 -0.04106918
000070 22 b9 39 3e ea 4a 53 3e 49 36 9b bd 46 3a a2 bd
       0.18137029 0.20634046 -0.075787134 -0.07921271
000080 d8 fc ae 3d 03 49 1c 3e 73 55 65 3e 2d 46 d6 3e
       0.0854432 0.15262227 0.22395878 0.41850415
000090 6d a2 25 3e 0f 4f b6 be 78 e5 7f 3e 54 ff 5a bd
       0.16175242 -0.35607192 0.24989879 -0.053466156
0000a0 2f b6 46 bd 66 f8 66 be 57 9e a3 3d 07 f6 bd bd
       -0.048513588 -0.22555694 0.07989185 -0.092754416
0000b0 97 0a 64 3e 09 b1 2e 3e 49 69 bc 3d 43 04 0e 3e
       0.22269665 0.17059721 0.09199769 0.13868813
0000c0 49 ab 1e bd 0b ef c1 bd 7f 1b 44 3d c0 02 d7 3c
       -0.03873757 -0.09469422 0.047877785 0.026246428
0000d0 aa c0 55 bf 60 ad 1c be 9c 4c dd be 4f 95 31 bd
       -0.8349711 -0.15300512 -0.4322251 -0.043355282
0000e0 63 55 64 bd 0c 30 48 be a3 47 8f 3c f8 2b 01 3f
       -0.055745494 -0.19549578 0.017490214 0.50457716
0000f0 16 6c 7b 3e 09 98 4f 3e 4a 65 dd 3d 33 7c 03 3e
       0.2455295 0.2027284 0.10810335 0.12840347
000100 ba ed 23 b8 2f 00 77 be 32 27 e0 3c 10 89 9b 3e
       -3.908363e-05 -0.24121164 0.02736244 0.30378008
000110 8e 2f db 3d 67 f8 37 3d fc 7b e4 bc f0 de 26 3f
       0.1070243 0.04491463 -0.027891152 0.65183926
000120 ca 03 3c 3d fc 22 46 3e 2d 56 02 bd 64 44 3c 3d
       0.04590205 0.19349283 -0.031820465 0.04596366
000130 06 48 89 3c 55 4e c1 3d 6f d2 21 bc 0c 37 0c 3d
       0.016757976 0.09438769 -0.009876831 0.034232184
000140 43 06 f9 3d e5 c9 3f bd b8 e6 51 bc e6 a2 e3 3d
       0.121593975 -0.0468234 -0.012811355 0.11115055
000150 62 c3 ed 3b e5 48 d7 3d 2f 42 f0 bc 41 a4 a1 3d
       0.0072559575 0.105119504 -0.029328434 0.07892657
000160 8a 82 89 be 72 3d 60 3e 5b 08 0f 3f e8 8c 0c 3e
       -0.26857406 0.2189844 0.55872124 0.13725626
000170 2f 0e a6 3d 61 03 7c 3e 12 9a cb 3d 71 5a da 3d
       0.08108174 0.24610664 0.09941496 0.106617816
000180 48 c4 13 3e 14 fe d2 bc f9 55 82 bc cf 56 06 3e
       0.14430344 -0.02575592 -0.015910136 0.13119052
000190 2e d8 b3 3d 55 05 47 3e a0 16 b3 3d 7d 46 2d 3d
       0.087814674 0.19435628 0.0874455 0.04230355
0001a0 2a ea c2 3d 39 c8 1b 3e 5b a2 df 3d 1f 7b 37 3e
       0.095173195 0.15213098 0.10919639 0.1791806
0001b0 41 0e 60 3d f7 ac e2 3c 0a aa a1 bd ea 66 02 be
       0.054701094 0.027670367 -0.078937605 -0.12734571
0001c0 d3 e3 dc bd 58 c4 53 be fb 29 8d 3d ef f1 a0 3d
       -0.107856415 -0.20680368 0.06892773 0.07858645
0001d0 23 96 1d 3d f2 ec 21 3c 31 8c d4 bd de 88 af 3d
       0.03847326 0.009883152 -0.10378302 0.08571027
0001e0 0f 67 d4 bd fe 53 0c be 20 f7 28 3d 6c f3 22 3e
       -0.10371219 -0.13703915 0.0412513 0.1591317
0001f0 ab 45 e7 be f3 8c aa be bd 5b 11 3f 4d df b2 be
       -0.4517034 -0.3331066 0.56780607 -0.3493599
000200 ed f6 56 bd 51 db f7 bd c9 e0 78 3e 8f 5a 42 3b
       -0.05248158 -0.12102378 0.24304499 0.0029656028
000210 f2 f8 7d 3d dd 48 a5 3b 43 39 ca bd d9 36 c0 3d
       0.06200499 0.0050440864 -0.09874203 0.09385461
000220 77 14 85 bc 73 fa 17 be 55 8d 80 3e 50 34 a5 bd
       -0.01624511 -0.14841633 0.25107828 -0.080666184
000230 ae 78 82 3e e6 d8 a9 3e f6 54 91 3d 62 6a be bd
       0.25482696 0.33173293 0.07096283 -0.09297635

generator-1/Conv2D_3 f4 [4, 1, 1, 4]
000000 f5 39 87 3f e4 d4 23 3e 0e 4c 88 bd 6f 6c a4 3e
       1.0564562 0.1599918 -0.06655131 0.32113978
000010 b2 3a 0f c0 40 3c 11 bf 54 66 51 be 03 b4 fb 3c
       -2.2379575 -0.5673256 -0.20449191 0.030725485
000020 b3 71 b2 3e 73 aa 03 3e 2b 4b 5e be 31 b9 c4 3e
       0.3485237 0.1285799 -0.21708362 0.3842254
000030 7c 92 81 3e 01 f7 e6 be 64 3d 47 3d 92 c5 f8 3e
       0.2530707 -0.45110324 0.04864253 0.48588234

generator-1/Conv2D_4 f4 [4, 3, 3, 4]
000000 1d 89 23 be 62 42 8b 3e 82 c0 d2 3d 6a ba 0d bf
       -0.15970273 0.27199084 0.10290624 -0.5536257
000010 f2 2e 3c be e5 c5 4f 3e 2b f7 67 3d 55 f9 12 bf
       -0.18377283 0.20290335 0.056632202 -0.574117
000020 66 10 80 be e1 28 7d 3e 0f 40 01 bc 22 ba 10 bf
       -0.2501251 0.24722625 -0.007888808 -0.56534016
000030 00 f5 b1 be 0f 6e 29 3e 07 4a 8a 3d 68 0c 10 bf
       -0.34757233 0.1654589 0.06752401 -0.5626893
000040 0a 7a fc be 69 c5 73 3e 76 1a 16 be c2 2f c9 be
       -0.49311858 0.23805775 -0.14658532 -0.3929425
000050 79 9a 0e bf 70 16 5a 3e 16 4b 21 be 4d fb c6 be
       -0.55704457 0.21297622 -0.157513 -0.38863602
000060 d3 ec c6 be 26 63 55 3e 17 6d 73 ba 05 6e 0c bf
       -0.38852558 0.20838603 -0.000928597 -0.54855376
000070 40 91 14 bf f4 cd 59 3e c9 ef 1e be ff 7a c5 be
       -0.58034134 0.21269971 -0.15521158 -0.385704
000080 03 e3 13 bf d6 ba b9 3e f4 7e 46 be a5 f6 aa be
       -0.5776827 0.36275357 -0.19384366 -0.333913
000090 86 ce af be 8b 03 80 3e 00 3e 9d be 47 01 43 bd
       -0.34337252 0.25002703 -0.30711365 -0.04760864
0000a0 08 ca 86 be 45 2d 9a 3e 86 9c b0 be ff 38 4a bd
       -0.26326013 0.30112663 -0.34494418 -0.049370762
0000b0 d6 b0 b0 be a1 35 8b 3e 29 d2 f8 be 97 f9 96 bd
       -0.34509915 0.27189353 -0.4859784 -0.07371824
0000c0 af f6 89 be e4 5f 8e 3e 72 71 ac be 5d 42 55 bd
       -0.26946017 0.27807534 -0.33680302 -0.052065242
0000d0 9c 92 85 be ba 4f b9 3e 8c 28 0a bf 5b 8d cb 3b
       -0.26088417 0.3619364 -0.5396812 0.0062119192
0000e0 8f 2b 77 be de 76 98 3e 03 59 10 bf b4 d4 c0 bc
       -0.2413771 0.29778188 -0.5638582 -0.023538925
0000f0 27 86 ab be 12 8b 72 3e 29 6d f6 be 72 b8 8f bd
       -0.33500788 0.23685864 -0.48130158 -0.07017602
000100 6a 12 84 be 84 cb 97 3e b9 d8 0f bf c6 6b cb bc
       -0.257953 0.29647458 -0.5619007 -0.024831664
000110 90 df 96 be e7 63 90 3e 13 1b 0e bf d5 42 fc bc
       -0.2946744 0.2820122 -0.5551006 -0.030793587
000120 9c 53 9b bd d9 b1 3f 3e 37 ef c3 bd d2 48 90 3d
       -0.075843066 0.18720187 -0.09567111 0.07045139
000130 5c 42 2b be ae 29 62 3e da 96 32 be 0b cb 5e 3b
       -0.16724533 0.22086212 -0.17440358 0.0033995535
000140 f8 6f 03 be 00 36 86 3e cf fa 86 be d2 e7 8b bb
       -0.12835681 0.26213074 -0.26363227 -0.0042695785
000150 98 9b 45 be 63 97 53 3e 5a 5e 38 be b7 63 ac 3b
       -0.19297636 0.20663218 -0.18004742 0.0052609104
000160 f9 ce 9e be ba 89 a7 3e e3 9e 00 bf df 69 fd bd
       -0.31017283 0.32722265 -0.5024244 -0.12373709
000170 3c e7 9a be 67 45 95 3e 2d 8a 08 bf 0e 98 ab bd
       -0.30254543 0.29154512 -0.5333584 -0.083786115
000180 d1 33 0c be 3a 9f 82 3e 66 aa 8a be 56 83 91 bc
       -0.13691641 0.25512105 -0.2708313 -0.017762821
000190 b7 0b 96 be df 69 97 3e 8b 0b 07 bf e9 fc b3 bd
       -0.29305813 0.2957296 -0.5275199 -0.08788473
0001a0 77 36 6a be 24 e1 b3 3e 44 ed 0c bf cb 37 0e be
       -0.22872339 0.35132706 -0.5504954 -0.13888471
0001b0 1b 57 bf 3e 27 ad 39 be 7e cc 8f 3e 0e 95 80 3e
       0.37371144 -0.18132459 0.28085703 0.2511372
0001c0 e2 e4 af 3e b4 77 3f be 13 79 85 3e 74 ca 1c 3e
       0.3435431 -0.18698007 0.26068935 0.15311605
0001d0 bc ae 05 3f ea 33 3b be 22 d7 d4 3e 9b cf 38 3e
       0.5221975 -0.18281522 0.41570383 0.18047945
0001e0 1f 72 b2 3e 01 b6 29 be 16 50 81 3e 5b 7f 42 3e
       0.34852692 -0.16573335 0.25256413 0.18993895
0001f0 d5 c7 3e 3e 9f 1f 8c be f3 57 ec 3e dc b7 0d 3d
       0.18630917 -0.27367875 0.4616085 0.03459917
000200 3d f3 a0 3e fa 50 55 be 19 23 02 3f e4 32 cb 3d
       0.31435576 -0.20831671 0.50834805 0.09921816
000210 74 28 03 3f d8 4b 32 be 27 64 ca 3e 6d 88 67 3e
       0.512336 -0.17411745 0.39529535 0.22610636
000220 00 51 a5 3e a2 7f 62 be 54 4f ff 3e 24 c0 c3 3d
       0.3228836 -0.22119 0.4986521 0.09558132
000230 4e 02 bc 3e ad 33 75 be 6a d0 0a 3f e3 1b 37 3e
       0.36720508 -0.23945494 0.54224265 0.17881732

generator-1/Conv2D_5 f4 [4, 3, 3, 4]
000000 2a 40 d6 bd 40 fa 12 3f 58 f9 ad be 06 9c 84 3e
       -0.10461457 0.574131 -0.33979297 0.25900286
000010 72 d3 d8 bd 0a c6 3b 3f fb b9 d7 be 57 c8 1e 3e
       -0.10587205 0.7334906 -0.4213408 0.15506111
000020 ee eb ee bd 0e bf 70 3f 47 93 c5 be 9c c4 96 3e
       -0.11666094 0.94041526 -0.38588926 0.29446876
000030 d8 12 53 be b4 6e 3a 3f e3 82 d3 be ba 4d 30 3e
       -0.20612657 0.7282517 -0.41310796 0.1721715
000040 ba 59 a0 3d aa 03 13 3f 34 9f d3 be 4d dc 2e bd
       0.07829614 0.57427466 -0.413324 -0.042690564
000050 73 68 9d bb 37 db de 3e 90 fd b1 be 2e 8e b4 3d
       -0.004803711 0.43526623 -0.34763765 0.08816181
000060 78 fb 29 be 88 3f 76 3f 08 a5 b5 be 09 d3 9b 3e
       -0.16599834 0.9619069 -0.3547747 0.30434445
000070 a1 92 88 3c d8 6e e3 3e 8e 2d b9 be 3e 9d ba 3d
       0.01667148 0.44420505 -0.36167568 0.09112023
000080 d8 df 78 3d ea df d5 3e 96 6e b3 be 5c 98 14 3e
       0.06076035 0.41772395 -0.35045308 0.14511245
000090 08 2f d2 bc d4 4a a6 3d a1 14 a1 3e 21 99 46 3d
       -0.025657192 0.08119741 0.3146105 0.04848588
0000a0 2e 15 5f 3d 0c 75 ba 3b 77 07 b5 3e d1 0b 8c 3d
       0.054463558 0.0056902226 0.35357258 0.06838191
0000b0 bf 88 1a be 6b 79 8b bd 1c 4f a2 3e 94 11 15 3d
       -0.15091227 -0.06810268 0.3170098 0.036393717
0000c0 02 ff 06 3d 30 40 e9 bd a6 8a ae 3e 32 81 99 3d
       0.03295804 -0.11389196 0.34090155 0.07495345
0000d0 a2 80 8c 3e 34 d6 8e bf 5c 6a f5 3e 67 d3 b3 bd
       0.2744189 -1.115912 0.47932708 -0.08780556
0000e0 f3 1a 2d 3e 84 97 7c bf 99 a7 be 3e a4 48 f9 bd
       0.16904812 -0.98668694 0.37237242 -0.12172058
0000f0 99 14 32 be 05 6a 28 be f3 71 9c 3e b4 2e 73 3d
       -0.1739067 -0.16446693 0.30555686 0.05937071
000100 a3 92 2f 3e bd d2 7c bf bc cc c6 3e 13 2e da bd
       0.17145781 -0.9875906 0.38828075 -0.10653319
000110 e3 a3 68 3d f3 7b 99 bf 4a fb d0 3e 8e cc 31 be
       0.05679692 -1.1990951 0.40816718 -0.17363188
000120 f4 30 4a 3f 98 60 a0 be 8f 66 e6 3d c2 ee 3f be
       0.78980947 -0.31323695 0.1125003 -0.18743423
000130 5f 4d 2f 3f 09 8b 42 bf 47 b3 07 3e 7b 40 88 be
       0.68477434 -0.759934 0.13251983 -0.26611695
000140 74 3c 24 3f 4b e0 fc be 04 af 0b 3e b6 2b 9c be
       0.64154744 -0.49389872 0.13640982 -0.305021
000150 e8 34 2c 3f 22 30 4e bf 4e 98 26 3d 56 e5 94 be
       0.6726823 -0.80542195 0.040672593 -0.2908122
000160 e2 2a 10 3f e3 00 b7 bf e1 2d 10 bd 5f 73 8b be
       0.56315434 -1.4297146 -0.035200004 -0.2723646
000170 fe 07 f8 3e be 34 80 bf 5b 0b 07 be bf bd 82 be
       0.48443598 -1.0016096 -0.13187926 -0.2553539
000180 14 24 29 3f ca d0 e9 be f1 58 ce 3c 68 99 a5 be
       0.66070676 -0.45667106 0.025188895 -0.32343602
000190 5e 2b fd 3e 9f af 6b bf 8b a0 d6 bd 38 36 7e be
       0.4944715 -0.9206485 -0.1047984 -0.2482537
0001a0 58 29 0b 3f f4 a6 8d bf 0e a3 04 be 27 03 bf be
       0.5435996 -1.1066575 -0.12952825 -0.37307093
0001b0 ce 7f 8a be 90 62 a6 bc bc ec 03 be 88 f7 41 3e
       -0.27050632 -0.02031067 -0.12883276 0.18942082
0001c0 e0 94 0b be de 4a 18 bf d8 31 5d bd c9 55 32 3c
       -0.1363101 -0.5948924 -0.054002613 0.010884711
0001d0 96 08 8f be 09 c2 6d bf 66 9c 90 be c8 ed 7a be
       -0.27936238 -0.928742 -0.28244323 -0.24504769
0001e0 af a2 a1 bd a1 6e dd be 40 93 a9 bd 35 9a 56 b9
       -0.078923576 -0.43248466 -0.08280039 -0.00020466077
0001f0 03 64 01 bf b9 72 fc 3d dd 51 bd 3d 43 97 af 3e
       -0.5054323 0.12326569 0.0924413 0.3429509
000200 14 ee 01 bf c6 8e bd 3e 4f be 76 bd 7b ce e2 3d
       -0.50753903 0.3702299 -0.060240086 0.11074539
000210 bd c3 26 be a8 92 6d bf 77 81 a5 be 26 5a 95 be
       -0.16285606 -0.92801905 -0.32325336 -0.2917034
000220 1e 96 f3 be c3 58 b8 3e c5 a8 25 bd 69 cb a7 3d
       -0.47575468 0.3600522 -0.040444154 0.08193094
000230 94 36 00 be 05 0e 24 bf 5b 08 c8 3d fd 7a c4 be
       -0.1252082 -0.6408389 0.09767219 -0.38375083

generator-1/Conv2D_6 f4 [4, 3, 3, 4]
000000 c6 01 b1 bc ec fa 0c bf ab 14 72 3e dd 06 2f 3d
       -0.021607291 -0.55070376 0.23640697 0.042731155
000010 a7 6b e9 bc 8e 01 18 bf 95 8e 0f 3f 91 36 74 be
       -0.028493715 -0.5937737 0.5607694 -0.2384894
000020 2a 76 27 bd a2 cb 0c bf 1e 5d 67 3f 52 c9 dc be
       -0.040884174 -0.5499822 0.9037646 -0.43122345
000030 55 1c bb bc b3 97 31 bf b7 ff 9e 3e 4e f8 97 be
       -0.022840658 -0.693721 0.3105447 -0.2968163
000040 f3 53 01 bd 5c f8 dd be c0 d6 ce be bf 2e f5 be
       -0.0315742 -0.43353546 -0.40398216 -0.47887227
000050 98 ab e4 3a 45 7c 81 be d7 78 c3 be 93 72 0c bf
       0.0017446158 -0.25290123 -0.3817813 -0.54862326
000060 68 fb ca bc ed 7f 25 bf 5e dc 0d 3f 46 a8 e7 be
       -0.024778083 -0.64648324 0.5541438 -0.4524557
000070 19 25 3f 3c 17 62 75 be da 04 aa be d0 fd 09 bf
       0.01166656 -0.239632 -0.33206826 -0.5390291
000080 35 d7 8a bd f8 99 8d be 7e a5 e6 be 5b ee 08 bf
       -0.06779329 -0.2765653 -0.45048136 -0.534887
000090 96 9d 15 be fd 3f 51 3e 33 9a 60 3f c3 af 33 3e
       -0.14610896 0.20434566 0.8773529 0.17547517
0000a0 d5 16 9f bd 7f 7e 65 3e 28 90 e6 3e 47 93 93 bd
       -0.07768027 0.22411536 0.45031857 -0.07205825
0000b0 68 99 19 be 77 49 ea 3e 25 ca 32 3f db 9e 25 be
       -0.14999926 0.45759174 0.698397 -0.1617388
0000c0 f3 c4 c3 bd 1f 91 56 3e f5 36 02 3f 6a 40 d0 bd
       -0.095590495 0.20953797 0.5086511 -0.10168536
0000d0 68 2a db bd 58 3c 41 3e 13 f6 43 3f 81 69 60 be
       -0.10701448 0.18870676 0.76547354 -0.21915247
0000e0 b1 2f f5 bd 77 e3 bc 3e ee 90 81 3f 24 1d 9c be
       -0.11971987 0.36892292 1.0122354 -0.30490983
0000f0 51 ce 30 be dd a6 dd 3e 36 85 59 3f d8 0b 60 be
       -0.17266203 0.4329137 0.8496889 -0.21879518
000100 86 39 e9 bd 62 35 c0 3e 24 36 7c 3f bc 5c 96 be
       -0.11387925 0.37540728 0.9852011 -0.29367626
000110 cb 68 65 be 02 23 fc 3e 03 93 96 3f 21 c4 92 be
       -0.22403257 0.4924546 1.1763614 -0.2866526
000120 09 bf 13 bf d8 4b 94 3e 50 7f da bd 4b c1 62 be
       -0.5771337 0.28964114 -0.10668814 -0.22144048
000130 55 83 3b bf 8b 9b 5b 3e db 5c 14 3e c6 a7 e2 bd
       -0.7324727 0.21446054 0.14488547 -0.110671565
000140 e8 cb 82 bf 69 74 04 3f 7b b5 48 3e ec ba 78 bf
       -1.0218477 0.5174013 0.1960048 -0.9716022
000150 68 5d 38 bf 5d 56 58 3e bc d1 cb 3c 04 76 1b be
       -0.72017527 0.21126695 0.024880283 -0.15181738
000160 e3 d0 53 bf 5d a1 bc 3e 79 e2 8f bd fc 06 8e be
       -0.8274061 0.3684186 -0.07025618 -0.27739704
000170 02 2a 4d bf 06 8a 07 3f 2e 19 b0 3e 67 a8 08 bf
       -0.80142224 0.5294498 0.3439421 -0.5338196
000180 17 79 91 bf 4c 6e f1 3e 4b 97 24 3e 99 9f 6d bf
       -1.1365079 0.47154462 0.16073339 -0.9282165
000190 eb d9 44 bf af ed 07 3f 03 ce b9 3e 2e 44 ff be
       -0.76895016 0.5309705 0.36289987 -0.49856704
0001a0 49 40 7c bf c3 47 28 3f 3f bc 03 3f 35 b5 80 bf
       -0.9853559 0.657345 0.51459116 -1.00553
0001b0 56 dd b9 be 20 3a c8 3e 4e da b7 3e a4 2e 6c 3e
       -0.36301678 0.39106846 0.3590874 0.23064667
0001c0 0a 40 8e be 6a 08 94 3e 31 68 14 3f 9b 67 50 3d
       -0.27783233 0.2891267 0.57971483 0.050880056
0001d0 64 8e 13 bf d3 40 d9 3e 26 1f 16 3f 06 3c 65 be
       -0.57639146 0.4243227 0.5864128 -0.22386178
0001e0 21 94 a2 be d8 41 5c 3e bd 2a f2 3e 0b f7 43 ba
       -0.31753638 0.21509492 0.47298232 -0.0007475472
0001f0 d2 94 47 be b0 a7 76 3e 5b 7a 11 bf a5 7e fc 3d
       -0.19490364 0.24087405 -0.56827325 0.12328843
000200 4f 4c de be ca 71 a3 3e 85 15 94 be f7 18 4a 3e
       -0.43417594 0.31922752 -0.28922668 0.19736086
000210 c8 e0 28 bf 28 e9 99 3e c1 58 c3 3e 7a 2f 90 be
       -0.6596799 0.30060697 0.3815365 -0.28161222
000220 17 2d de be 66 d0 a6 3e b3 84 97 be 34 5d 44 3e
       -0.43393776 0.3258087 -0.2959343 0.19176179
000230 0c e7 d1 be 58 d2 e7 3e 98 a4 1a be 6b 4a 09 bd
       -0.40996587 0.45277667 -0.1510185 -0.033518236

generator-1/Conv2D_7 f4 [4, 1, 1, 4]
000000 5a 00 45 bf 9e 99 fd 3e 4b 33 20 40 86 1a 8b 3f
       -0.7695366 0.49531263 2.5031307 1.0867469
000010 30 e5 7b 3d 41 fe 1c be 87 f8 84 bf a6 5b 1d bf
       0.061497867 -0.15331365 -1.0388345 -0.6146797
000020 86 eb eb 3d 97 ec 3b 3f 37 ef b5 3f be 98 11 3f
       0.11519532 0.7340788 1.4213628 0.5687369
000030 b2 a7 a4 3d a8 4f 18 be 67 57 85 bf d0 3e 1d bf
       0.08039798 -0.14874136 -1.0417298 -0.6142397

generator-1/Conv2D_8 f4 [4, 1, 1, 4]
000000 8f 09 2d c0 0b 55 3d 3f 71 90 08 bf 85 b7 45 3f
       -2.7037084 0.7395789 -0.533454 0.77233154
000010 d5 e3 3b bf 55 c8 a3 bd cb 6c e9 3e de f7 e9 bd
       -0.7339452 -0.07997195 0.45590815 -0.1142423
000020 19 78 10 bf d9 8b 92 3e 66 5d 0e bf 02 55 94 3e
       -0.56433254 0.2862232 -0.55611265 0.28971106
000030 9c cf 35 bf 82 c1 94 3d b2 09 d2 bd d7 59 cc 3d
       -0.7101991 0.07263471 -0.102557555 0.09978073
